data/biLSTM_whole_weights.pth (torch, 17982 bytes, 17 tensors)

lstm.weight_ih_l0 f4 [32, 10]
-0.19850516 0.10752861 -0.117213055 0.79291695 2.0327263 -0.1351014 0.49240226 -0.45774305
-0.232858 -0.45355338 0.100605875 -0.04204481 -0.7422472 0.67125076 -0.19388232 0.2841308
0.15049742 -0.22343257 0.84692365 -0.538406 -0.27631077 -0.29115418 -0.37632325 -0.6911661
0.17359728 0.33296907 -0.110262126 -0.611043 1.3871876 -0.47311828 0.2843721 -0.39583057
-0.40637773 -0.3300136 -1.5171012 0.013664283 0.20923617 -0.3957877 0.6714554 0.49011543
0.53398144 -0.8881434 1.5479591 1.597001 -0.38854617 0.36893216 0.6971108 1.2251692
-0.7151859 0.5995519 -1.8186408 -0.9487186 0.629699 0.7217514 -0.08062989 -0.5814801
-0.25125602 0.26808837 0.34070072 0.080627516 1.0334219 -0.2793669 0.24721311 0.8503778
-0.28344387 0.15542476 0.45119336 -0.1667866 0.050310835 0.06602319 -0.12618048 -1.1641302
0.2341651 0.69194764 -1.3893492 0.43187645 0.009355676 -0.13026035 -0.32330054 -0.5322005
-1.3156399 0.40140763 0.49691078 -0.54482365 -1.3494413 0.97836816 -0.3301668 0.5342436
-0.66738826 0.18869449 -0.06826669 -0.09466286 0.8708318 0.14087382 0.37959242 -0.049534827
0.68575406 0.38850522 1.1143732 0.6392623 -0.6507616 0.37516648 0.16036396 0.8640575
1.3924665 0.75488794 0.34783098 0.86156785 0.6275979 -0.2360186 0.14210534 0.38026124
0.4914388 0.47355494 -0.51541185 0.12601155 0.85069716 -0.22830582 1.0099748 0.054354493
-0.5661456 -1.1252794 0.062784836 -0.5797691 -0.5257247 -0.97420186 0.2982054 -0.2010372
-1.0247883 -0.17596027 -1.6285836 -0.116978556 1.0446819 0.8530691 -0.37089217 0.20572543
-0.780511 0.51792645 1.1519605 0.4951441 1.6285954 0.48657513 0.44619495 -0.11319697
-0.4815057 0.18370727 -0.06909826 1.1296319 0.1756909 0.90539247 -0.7196017 -0.37531102
0.22506678 0.7222591 -1.5405047 -0.00096736214 0.09951701 -0.53949106 0.39322755 -0.35882154
3.3570876 -0.036027674 0.045217108 -0.3098443 -0.2141697 0.18336172 0.08504447 0.14294337
-0.37883782 -0.044460997 2.5084746 0.39140743 -0.06567827 -0.09404737 -0.13181387 -0.08802203
-0.21392153 -0.15351942 0.25913092 -0.03198433 1.1098665 -0.04097286 0.28471366 -0.26985928
0.28945702 -0.33928284 -0.11668298 0.07767032 -0.04365557 -0.063718624 -1.1040801 0.3604048
0.048710063 -0.52123743 0.40156278 -0.0857376 0.09929564 0.39174122 1.1118745 -0.03854583
2.8929214 0.10672447 0.1407045 -0.16584997 0.052918825 0.045650568 -0.17352544 -0.09526718
0.06498458 0.06145024 -0.377031 0.14965187 -1.0984241 -0.12530044 -0.12962241 -0.1527383
-0.14764397 -0.028784024 -0.70181423 -0.36102316 -1.6901231 0.32530814 0.1770524 -0.17477909
-0.11305993 -0.08813418 0.09081297 -0.1832415 0.19802041 -0.14014415 -0.5383312 -0.6754136
0.6542516 0.17544468 1.9151968 0.34361446 0.18258707 -0.4257231 2.3038244 -0.30961666
-0.039902404 -0.3731892 0.3034081 0.3318936 1.144152 -0.0012303672 0.4302038 0.2513696
-0.6724995 -0.3393475 1.6801714 -0.90391725 1.5014998 0.71252847 0.1877757 0.5678797
00000000: f044 4bbe f637 dc3d 660d f0bd 9bfc 4a3f
00000010: 3018 0240 0558 0abe 261c fc3e 4c5d eabe
00000020: 5472 6ebe 2638 e8be 740a ce3d 2e37 2cbd
00000030: ea03 3ebf 17d7 2b3f 1689 46be 9879 913e
00000040: ff1b 1a3e 82cb 64be fdcf 583f fad4 09bf
00000050: 9b78 8dbe 2912 95be 71ad c0be 43f0 30bf
00000060: 7cc3 313e ec7a aa3e 1cd1 e1bd 506d 1cbf
00000070: 5d8f b13f 8f3c f2be 3899 913e 4eaa cabe
00000080: be10 d0be 8bf7 a8be 5f30 c2bf 28e0 5f3c
00000090: 0242 563e afa4 cabe 80e4 2b3f 69f0 fa3e
000000a0: 02b3 083f 5e5d 63bf 8623 c63f 876a cc3f
000000b0: 86ef c6be ade4 bc3e da75 323f 58d2 9c3f
000000c0: 6c16 37bf 3c7c 193f 39c9 e8bf 39df 72bf
000000d0: f433 213f b3c4 383f 4921 a5bd e1db 14bf
000000e0: a1a4 80be e142 893e 5370 ae3e 0a20 a53d
000000f0: 2b47 843f 2e09 8fbe 6f25 7d3e 5cb2 593f
00000100: 8e1f 91be ab27 1f3e d102 e73e 1bca 2abe
00000110: bc12 4e3d 2b37 873d 7535 01be 3802 95bf
00000120: fac8 6f3e 7b23 313f 32d6 b1bf e91e dd3e
00000130: 8d48 193c f862 05be a687 a5be 4b3e 08bf
00000140: e366 a8bf 4d85 cd3e 176b fe3e 9079 0bbf
00000150: 7eba acbf 5676 7a3f 9f0b a9be 30c4 083f
00000160: f5d9 2abf 2139 413e 68cf 8bbd 9ade c1bd
00000170: d5ee 5e3f 3a41 103e f059 c23e 08e5 4abd
00000180: 948d 2f3f 28ea c63e c8a3 8e3f b2a6 233f
00000190: 5098 26bf d215 c03e 7336 243e df32 5d3f
000001a0: 583c b23f 5640 413f e716 b23e b68f 5c3f
000001b0: 42aa 203f dcae 71be 1084 113e 9ab1 c23e
000001c0: de9d fb3e cb75 f23e 08f2 03bf 2c09 013e
000001d0: 4ac7 593f 00c9 69be db46 813f d1a2 5e3d
000001e0: ebee 10bf 2809 90bf 5695 803d bf6b 14bf
000001f0: e595 06bf 4b65 79bf 61ae 983e b2dc 4dbe
00000200: 432c 83bf ee2e 34be 6d75 d0bf 7492 efbd
00000210: 23b8 853f bd62 5a3f 94e5 bdbe b0a9 523e
00000220: 92cf 47bf d496 043f 7173 933f 8783 fd3e
00000230: d075 d03f 6020 f93e aa73 e43e d0d3 e7bd
00000240: ea87 f6be c21d 3c3e 6383 8dbd c797 903f
00000250: 51e8 333e cdc7 673f d137 38bf c428 c0be
00000260: e877 663e f9e5 383f 422f c5bf 9396 7dba
00000270: 93cf cb3d 161c 0abf 1f55 c93e 75b7 b7be
00000280: 86da 5640 c191 13bd 9335 393d e9a3 9ebe
00000290: 4d4f 5bbe 2dc3 3b3e cc2b ae3d bf5f 123e
000002a0: 08f7 c1be bc1c 36bd d98a 2040 8e66 c83e
000002b0: 5482 86bd e89b c0bd 37fa 06be e544 b4bd
000002c0: 3f0e 5bbe 3234 1dbe cfac 843e 0002 03bd
000002d0: 1b10 8e3f 28d3 27bd fdc5 913e ff2a 8abe
000002e0: b633 943e 7bb6 adbe 7cf7 eebd 9e11 9f3d
000002f0: 2fd0 32bd e97e 82bd 7f52 8dbf fa86 b83e
00000300: 3484 473d d16f 05bf a399 cd3e 3297 afbd
00000310: 835b cb3d 4e92 c83e e751 8e3f 3be2 1dbd
00000320: a025 3940 5c92 da3d d714 103e 93d4 29be
00000330: 69c1 583d 17fc 3a3d a7b0 31be 701b c3bd
00000340: a316 853d 3fb3 7b3d 350a c1be 573e 193e
00000350: 2999 8cbf c24e 00be bdbb 04be 6e67 1cbe
00000360: fb2f 17be 79cc ebbc 19aa 33bf 07d8 b8be
00000370: f455 d8bf ca8e a63e 394d 353e 4af9 32be
00000380: f78b e7bd b17f b4bd 27fc b93d a9a3 3bbe
00000390: ddc5 4a3e f381 0fbe 13d0 09bf e8e7 2cbf
000003a0: 087d 273f c5a7 333e 2b25 f53f 3cee af3e
000003b0: 1bf8 3a3e 61f8 d9be dc71 1340 1386 9ebe
000003c0: b470 23bd a812 bfbe 4e58 9b3e f5ed a93e
000003d0: 9373 923f 4644 a1ba ac43 dc3e 84b3 803e
000003e0: ed28 2cbf f5be adbe db0f d73f 1f67 67bf
000003f0: 2531 c03f 4468 363f 4648 403e 9060 113f

lstm.weight_hh_l0 f4 [32, 8]
-0.38203105 -1.4252611 1.1251653 0.046272945 0.15014692 -0.59662956 -0.13867925 0.28672227
-1.0470724 -1.0253329 0.24972023 -1.8075703 0.64646006 0.18427303 -1.3721098 0.6876402
-0.013207387 -0.28659034 1.1149276 -0.08067935 0.24295746 -0.0025523799 -0.65948045 -0.3073833
-0.2240578 -0.49887744 0.7115872 -0.47990423 -0.22736007 -0.27710775 1.7755687 -0.67324626
1.666022 0.012780788 0.33853146 0.44933364 0.010258683 0.32568982 -1.1226397 -0.57665014
-0.7334935 -0.52014863 2.298148 -0.7930603 -0.9492006 -0.32026497 -1.7139486 2.3202403
0.14518358 -0.36866203 -0.30649692 0.108076066 1.8809687 -0.7159143 -0.48196313 -0.23024404
0.18517089 -0.9783674 0.74572515 -0.53550845 -0.03511327 0.8589185 0.22521289 -0.35056505
0.53436255 -1.7839278 -0.88655555 0.26555142 0.21913534 -1.7474177 0.9278043 0.13800554
-0.51718974 -0.18793088 -1.6437653 -0.30600503 -0.06593941 -1.6431254 -0.3473142 0.7074571
0.15497606 -0.15406275 -0.114730164 0.33133504 -0.9373128 -0.9216995 -0.8425051 0.5206431
-0.8012047 -1.3081108 1.0332884 -0.024197374 -0.013798898 -0.04436462 1.3939451 -0.84108514
-0.33847037 0.18992864 0.5791196 0.77994967 -0.6798398 0.7809013 0.2824035 -0.27817792
-1.2181644 -1.0926322 0.043932382 -0.31685615 -0.6337011 -0.4394961 -0.39398515 1.318084
0.15119812 0.7853002 0.87651235 -0.8800126 -0.18076642 1.2939422 -0.7686801 0.8740419
0.47275823 -1.1771652 0.048477255 -0.31978866 0.5734238 0.057037838 -0.41164467 -0.49783257
-0.7159769 -0.6224489 -0.63011783 -0.82553554 0.15677422 0.45398846 -0.577224 -0.14545836
0.72329086 0.056843136 -1.0952665 0.11317891 0.38119414 -0.30006358 -0.60957694 -0.1389044
0.09094936 1.1016387 -0.4189179 0.1441117 -1.2865571 1.3302813 -0.24573578 0.9193883
0.61946034 0.054719474 -1.8747777 0.58141804 -0.7613026 0.83416975 -0.40949896 0.95670587
-0.2029818 -1.171772 -0.1758918 0.333706 -0.6793129 -0.35849386 0.5349095 -0.23660646
-1.1086923 1.0861232 -0.38752413 0.7956364 -1.2678524 0.6369153 -0.958286 -2.1391864
-0.17924684 0.45089176 1.2772213 -0.2254325 -1.6123009 -0.094530165 0.43417868 -0.06305678
0.07015067 0.6554353 -0.70151174 -0.6461542 0.8021185 0.14500518 -0.6763188 0.45222703
-1.1155937 -0.15398876 0.9683878 0.4613261 -1.2170707 -1.177618 0.9254229 -0.55257475
0.5309878 0.025806693 1.4039774 -1.9558836 0.7219461 -0.8407283 -0.4279927 -0.009054352
0.7934279 1.5190196 -0.8975829 -0.092545934 -1.306854 -0.22692002 0.6684331 1.0687077
-0.07220545 -0.7846849 0.543499 -0.2242199 -0.040920626 -0.83208436 1.1592658 -1.185645
0.15183873 0.5785478 1.8877538 0.76552635 -0.7300543 0.59430164 -1.0682003 -0.89772063
-0.7250891 0.29814267 0.5543472 -0.46036077 -1.3090079 0.36611977 -0.71497065 -0.59582907
0.07683306 -0.3828456 -0.91712964 0.11022884 1.5549424 -0.9737136 -0.60388345 0.24926203
0.54561085 -1.0954773 1.185441 -0.46103147 -0.037674617 0.57245296 -0.11687169 -0.54566157
00000000: 9399 c3be f56e b6bf 6b05 903f b388 3d3d
00000010: 1dc0 193e b7bc 18bf ef01 0ebe 43cd 923e
00000020: 7806 86bf 1c3e 83bf a9b6 7f3e 775e e7bf
00000030: 687e 253f 12b2 3c3e 4ba1 afbf 3009 303f
00000040: cc63 58bc f8bb 92be f3b5 8e3f 373b a5bd
00000050: d7c9 783e d445 27bb b6d3 28bf 5861 9dbe
00000060: 686f 65be dd6c ffbe 942a 363f 02b6 f5be
00000070: 14d1 68be 11e1 8dbe d645 e33f de59 2cbf
00000080: 3540 d53f 8366 513c ff53 ad3e 0f0f e63e
00000090: 0914 283c d1c0 a63e a8b2 8fbf 589f 13bf
000000a0: 3bc6 3bbf 7628 05bf db14 1340 0006 4bbf
000000b0: cffe 72bf c5f9 a3be ab62 dbbf d17e 1440
000000c0: 01ab 143e 45c1 bcbe 2aed 9cbe fc56 dd3d
000000d0: 95c3 f03f 2946 37bf dfc3 f6be 18c5 6bbe
000000e0: 709d 3d3e 4976 7abf d8e7 3e3f 1517 09bf
000000f0: efd2 0fbd 15e2 5b3f 359e 663e 437d b3be
00000100: fccb 083f bf57 e4bf 4ef5 62bf 5bf6 873e
00000110: 0465 603e 62ab dfbf 9584 6d3f 5351 0d3e
00000120: 8c66 04bf f470 40be e766 d2bf b1ac 9cbe
00000130: 3e0b 87bd ef51 d2bf 2bd3 b1be e91b 353f
00000140: 0bb2 1e3e a0c2 1dbe a6f7 eabd bfa4 a93e
00000150: bbf3 6fbf 80f4 6bbf 6aae 57bf de48 053f
00000160: c01b 4dbf 2d70 a7bf cb42 843f 9239 c6bc
00000170: c614 62bc adb7 35bd cb6c b23f 5b51 57bf
00000180: fd4b adbe a77c 423e 2f41 143f c8aa 473f
00000190: fb09 2ebf 26e9 473f 3197 903e 566d 8ebe
000001a0: d0ec 9bbf 5fdb 8bbf 71f2 333d f83a a2be
000001b0: 3c3a 22bf a205 e1be 6cb8 c9be fab6 a83f
000001c0: aed3 1a3e 6f09 493f 1d63 603f 8148 61bf
000001d0: d51a 39be e69f a53f 38c8 44bf 36c1 5f3f
000001e0: 5e0d f23e 59ad 96bf 1690 463d 57bb a3be
000001f0: e7cb 123f 82a0 693d 17c3 d2be e9e3 febe
00000200: 434a 37bf d058 1fbf 674f 21bf 4c56 53bf
00000210: 6c89 203e 2d71 e83e f4c4 13bf 09f3 14be
00000220: 9729 393f 59d4 683d b131 8cbf 58ca e73d
00000230: e12b c33e efa1 99be 3c0d 1cbf f43c 0ebe
00000240: a843 ba3d 7f02 8d3f 687c d6be 0492 133e
00000250: e7ad a4bf a846 aa3f 29a2 7bbe 085d 6b3f
00000260: f494 1e3f 8721 603d b7f8 efbf d0d7 143f
00000270: bae4 42bf 268c 553f d9a9 d1be adea 743f
00000280: 76da 4fbe a0fc 95bf fb1c 34be 83db aa3e
00000290: 73e7 2dbf 828c b7be d4ef 083f f748 72be
000002a0: a1e9 8dbf 1606 8b3f 9069 c6be d4ae 4b3f
000002b0: fd48 a2bf e20c 233f 3b52 75bf 6ee8 08c0
000002c0: 7c8c 37be 49db e63e fd7b a33f c7d7 66be
000002d0: e05f cebf 0899 c1bd ab4c de3e ea23 81bd
000002e0: 28ab 8f3d 9cca 273f 4696 33bf 5d6a 25bf
000002f0: a357 4d3f 3d7c 143e 3b23 2dbf 4d8a e73e
00000300: c6cb 8ebf 3baf 1dbe 43e8 773f ef32 ec3e
00000310: f9c8 9bbf 30bc 96bf 84e8 6c3f 8a75 0dbf
00000320: d1ee 073f 8f68 d33c 88b5 b33f 655a fabf
00000330: 76d1 383f f839 57bf dc21 dbbe b458 14bc
00000340: 171e 4b3f 3c6f c23f fec7 65bf b988 bdbd
00000350: fe46 a7bf b95d 68be 6f1e 2b3f 6acb 883f
00000360: 73e0 93bd 1ce1 48bf c022 0b3f e799 65be
00000370: 639c 27bd 7b03 55bf d262 943f 37c3 97bf
00000380: 9d7b 1b3e b51b 143f eba1 f13f 89f9 433f
00000390: d7e4 3abf 2724 183f caba 88bf 05d1 65bf
000003a0: 709f 39bf 28a6 983e b3e9 0d3f 68b4 ebbe
000003b0: 928d a7bf 0d74 bb3e 5108 37bf 4188 18bf
000003c0: a75a 9d3d 5704 c4be 02c9 6abf a8bf e13d
000003d0: 5a08 c73f 4b45 79bf 1b98 1abf 8c3e 7f3e
000003e0: 27ad 0b3f 9a38 8cbf 88bc 973f 510c ecbe
000003f0: b350 1abd 478c 123f 6d5a efbd 7ab0 0bbf

lstm.bias_ih_l0 f4 [32]
0.020998482 -0.24171454 -0.24028069 -0.36124298 1.1314452 -0.26661053 -0.56196 -0.1616203
-0.14317131 0.9682165 0.9285317 0.18855825 -0.38977614 0.3500259 0.04921894 -0.26502585
0.051655676 -0.171467 -0.5273491 0.2925982 -0.13048555 0.16479005 0.3787312 -0.34447163
0.05223326 0.38444832 -0.07341567 -0.501643 0.8618358 -0.48003715 -0.07909467 -0.43758813
00000000: 0205 ac3c 0484 77be 240c 76be d7f4 b8be
00000010: 32d3 903f 2d81 88be 9cdc 0fbf cb7f 25be
00000020: 809b 12be 09dd 773f 41b4 6d3f 6a15 413e
00000030: bd90 c7be 9836 b33e cd99 493d 78b1 87be
00000040: e794 533d 0c95 2fbe 5a00 07bf 6ecf 953e
00000050: 019e 05be b9be 283e 0ee9 c13e 965e b0be
00000060: 8bf2 553d 69d6 c43e f45a 96bd ad6b 00bf
00000070: 45a1 5c3f 6ec7 f5be 63fc a1bd 8d0b e0be

lstm.bias_hh_l0 f4 [32]
0.2554586 -0.25592774 -0.7592128 -0.14914879 0.85166943 -0.17416744 -0.66431904 -0.0095383795
-0.112654306 0.63384515 0.91768426 0.43873093 -0.34502044 0.3853966 0.03307704 0.18531483
-0.33665606 -0.19862124 -0.38565966 0.19490917 -0.4306386 0.3533445 0.42296165 -0.3707555
0.12399103 0.6040981 0.17683476 -0.021678355 0.969971 0.15421587 -0.618705 -0.55262077
00000000: 78cb 823e f608 83be c55b 42bf 76ba 18be
00000010: 0207 5a3f f358 32be d010 2abf dd46 1cbc
00000020: 4db7 e6bd ad43 223f 5bed 6a3f 57a1 e03e
00000030: 85a6 b0be b452 c53e ca7b 073d 2cc3 3d3e
00000040: 2f5e acbe 5e63 4bbe 2f75 c5be 4596 473e
00000050: aa7c dcbe 92e9 b43e 6e8e d83e aad3 bdbe
00000060: 02ef fd3d 2ca6 1a3f 2c14 353e ce96 b1bc
00000070: 0550 783f c4ea 1d3e 7363 1ebf 8e78 0dbf

lstm.weight_ih_l0_reverse f4 [32, 10]
-5.335004 0.43034047 -0.32590127 -0.5067002 -0.08478002 -0.050622635 0.1502201 -0.32360467
0.53907937 -0.22865754 0.4885385 -0.22747712 0.61474484 -3.1685877 -0.89639276 0.09673466
-0.7852826 1.0772495 -2.7416189 -0.24480988 0.8763908 0.053020567 -0.4655339 -0.012873819
0.7645164 -0.31649747 0.13918258 -0.12442194 0.98465466 0.36411056 1.3510405 -0.12480119
-0.35207313 0.48049816 0.76598907 0.4597792 0.40906754 -0.90919894 0.4907611 -0.0056467736
-3.8342788 0.5674348 -0.51806647 0.2086369 -0.5900167 0.15609504 -0.5211535 0.40279284
-0.09196097 -0.06546665 0.5292688 0.36734292 0.02578504 0.16067682 -0.2040258 -0.32963336
0.188124 -0.41039428 0.8304945 0.03399199 1.9727145 -0.24699262 0.26117003 -0.10649262
0.13328846 -0.14126773 0.07278943 -0.049096346 0.49901655 0.010982474 -0.36051866 -0.21474849
0.21170546 0.42595714 -0.004920059 0.17352796 -0.39991367 -0.2366065 -0.1407987 0.08962637
-1.1038744 0.5171493 -1.108065 1.1063831 -0.7766788 0.4254533 0.78519666 -0.73493063
-0.2820124 -0.31045738 0.033118024 0.5142813 0.37865707 -0.56004345 1.6496797 0.011290674
1.0794616 -0.7699737 4.5572047 -0.0541846 0.642726 -0.4043291 -0.53639835 -0.9527794
-0.24224101 -0.65759546 0.5203839 -0.86641353 -1.7017555 -0.27263206 0.845857 -0.20600367
0.80360526 0.192258 -0.27095622 0.28525338 -0.020355614 0.5247627 -0.8939829 -0.20882992
-1.7795566 1.3148242 -1.4968857 -0.5915427 -0.53911346 0.3478869 -0.22493327 -0.44781503
0.80177534 0.32614914 0.17313994 -0.8124848 0.7310618 0.47408506 -1.3586259 -0.16569138
-0.34022564 1.0082258 -0.46742782 -1.3684045 2.8088024 0.16947988 1.5044233 0.13486339
-0.234272 -0.33745956 0.935265 0.9588237 0.01658574 0.42827392 0.75530106 -0.4025557
1.2884642 0.49620867 0.594362 1.3661505 -0.5890371 0.72255397 -1.5296428 1.105422
-2.8810186 0.90961874 0.4051977 0.22997004 1.8439739 0.89637464 1.3569527 0.49513382
-0.3910057 0.16646297 0.10656767 -0.2801183 -0.78065467 2.1390007 -0.53777224 0.29518268
-0.5638398 -0.04024561 0.27219826 -0.0059945714 2.6318376 0.31980753 -0.3132564 0.16344061
-0.056271724 -0.04534954 -0.0968657 -0.2961505 0.8156211 0.1313066 1.7089251 -1.0804969
-0.051894393 -0.34963 0.20422691 -0.11564524 0.59042114 -0.53017074 -1.251082 0.051584575
-2.9936414 0.3531867 0.098521575 0.38307303 0.66193134 -0.0036644973 0.28836384 0.13488469
-0.26695257 0.1217924 2.5037775 0.014035346 -0.7398951 0.11611924 0.11754899 -0.11004258
0.18294956 0.1487704 -0.1383978 0.016479248 -3.940642 0.2511955 -0.16505393 -0.25546303
-0.06471261 0.38010383 -0.1702086 -0.17301267 0.20644985 0.008236008 -1.1401882 -0.90673584
1.4716412 0.018976599 -0.21780466 0.20651983 0.31051007 -0.20510595 0.50917405 0.15722355
-6.1181602 0.31340614 -0.47680634 -0.60199803 0.11690761 -0.2072668 0.1962198 -0.23271301
0.46056306 0.21042748 0.40555853 0.013652569 0.37541288 -3.1612945 -1.4180143 0.53478223
00000000: 5ab8 aac0 9655 dc3e 88dc a6be 1bb7 01bf
00000010: 26a1 adbd ae59 4fbd 4cd3 193e 83af a5be
00000020: 1b01 0a3f 3425 6abe b821 fa3e c3ef 68be
00000030: eb5f 1d3f 24ca 4ac0 ff79 65bf d21c c63d
00000040: 4808 49bf 50e3 893f af76 2fc0 71af 7abe
00000050: 265b 603f 182c 593d 765a eebe b6ec 52bc
00000060: 59b7 433f f50b a2be e185 0e3e eed0 febd
00000070: 5412 7c3f b36c ba3e e5ee ac3f c497 ffbd
00000080: ee42 b4be db03 f63e dc17 443f 2e68 eb3e
00000090: 4d71 d13e 43c1 68bf 0a45 fb3e 9208 b9bb
000000a0: d364 75c0 6843 113f 01a0 04bf e9a4 553e
000000b0: 560b 17bf 61d7 1f3e 516a 05bf dd3a ce3e
000000c0: 0856 bcbd 6113 86bd 297e 073f 5f14 bc3e
000000d0: 263b d33c 7788 243e 24ec 50be b4c5 a8be
000000e0: 94a3 403e 331f d2be 4a9b 543f 2f3b 0b3d
000000f0: e981 fc3f a2eb 7cbe 14b8 853e ce18 dabd
00000100: c57c 083e 7da8 10be a012 953d 4019 49bd
00000110: 197f ff3e d6ef 333c e795 b8be 07e7 5bbe
00000120: 51c9 583e 0e17 da3e 7238 a1bb 50b1 313e
00000130: 7cc1 ccbe f948 72be 892d 10be 088e b73d
00000140: c24b 8dbf e663 043f 13d5 8dbf f69d 8d3f
00000150: 6cd4 46bf 04d5 d93e a602 493f 6a24 3cbf
00000160: ee63 90be 45f4 9ebe c4a6 073d f0a7 033f
00000170: 57df c13e 025f 0fbf b428 d33f 85fc 383c
00000180: cc2b 8a3f ff1c 45bf 9fd4 9140 acf0 5dbd
00000190: b189 243f 3904 cfbe 6751 09bf 5ae9 73bf
000001a0: 070e 78be 2d58 28bf e137 053f 47cd 5dbf
000001b0: 20d3 d9bf 6e96 8bbe 168a 583f a0f2 52be
000001c0: 13b9 4d3f 48df 443e c6ba 8abe bb0c 923e
000001d0: d1c0 a6bc d956 063f 10dc 64bf 83d7 55be
000001e0: 83c8 e3bf 294c a83f f399 bfbf 586f 17bf
000001f0: 5703 0abf 3b1e b23e e854 66be 0348 e5be
00000200: 2641 4d3f 05fd a63e 994b 313e 01ff 4fbf
00000210: de26 3b3f 47bb f23e 74e7 adbf 00ab 29be
00000220: 0e32 aebe 8b0d 813f b352 efbe e127 afbf
00000230: 6bc3 3340 228c 2d3e f190 c03f a119 0a3e
00000240: 00e5 6fbe 80c7 acbe 876d 6f3f 7875 753f
00000250: d1de 873c b846 db3e 695b 413f c81b cebe
00000260: 65ec a43f 100f fe3e 1c28 183f 05de ae3f
00000270: 23cb 16bf 4cf9 383f 56cb c3bf 787e 8d3f
00000280: 9c62 38c0 c6dc 683f 1376 cf3e 447d 6b3e
00000290: 5607 ec3f cf78 653f a0b0 ad3f 2e82 fd3e
000002a0: e631 c8be 4575 2a3e 2740 da3d aa6b 8fbe
000002b0: fcd8 47bf 63e5 0840 71ab 09bf 2f22 973e
000002c0: ce57 10bf 95d8 24bd 925d 8b3e 1c6e c4bb
000002d0: 0770 2840 d0bd a33e 2563 a0be fa5c 273e
000002e0: 2e7d 66bd 70c0 39bd 8661 c6bd 0aa1 97be
000002f0: 8bcc 503f 3d75 063e 0fbe da3f b94d 8abf
00000300: 378f 54bd b402 b3be dc20 513e 69d7 ecbd
00000310: d725 173f 45b9 07bf 7423 a0bf 594a 533d
00000320: d297 3fc0 e3d4 b43e aec5 c93d 2622 c43e
00000330: 5574 293f 1028 70bb 6da4 933e 361f 0a3e
00000340: 02ae 88be 4b6e f93d e43d 2040 82f4 653c
00000350: c469 3dbf edcf ed3d 86bd f03d 015e e1bd
00000360: 2157 3b3e 4557 183e 27b8 0dbe 7dff 863c
00000370: 7b33 7cc0 b29c 803e e603 29be 0dcc 82be
00000380: 0b88 84bd f89c c23e 2a4b 2ebe 3c2a 31be
00000390: 9767 533e 52f0 063c b0f1 91bf d71f 68bf
000003a0: bd5e bc3f d074 9b3c 2f08 5fbe ef79 533e
000003b0: 2dfb 9e3e 4b07 52be 3b59 023f 36ff 203e
000003c0: f8c7 c3c0 c576 a03e f61f f4be 8b1c 1abf
000003d0: 426d ef3d bf3d 54be d8ed 483e 524c 6ebe
000003e0: ecce eb3e 4d7a 573e 5ea5 cf3e 06af 5f3c
000003f0: 1e36 c03e a652 4ac0 7e81 b5bf 7de7 083f

lstm.weight_hh_l0_reverse f4 [32, 8]
-0.14498363 0.26102996 0.55358535 0.61565554 -0.3801859 0.241756 0.38197318 -0.097249694
-1.551752 -0.4752472 0.7601272 0.37906936 -3.2353592 0.5962706 -0.5181335 -0.12197529
-0.16551702 -0.36199322 0.042552494 -0.99068624 0.57245326 -0.6499611 0.054747406 -0.005455634
0.1889298 -0.55204296 0.8997597 1.6049204 0.1755245 0.45019028 -0.17417529 -0.60806644
1.2506661 -1.4824774 0.6142116 -0.8348836 -0.6312173 0.5555353 0.86026806 -1.2515857
0.6551457 -1.1360623 -0.21899647 -0.19505657 0.02099017 -0.843405 -0.13608299 2.15632
0.9703461 -0.57884943 -0.472083 -0.033001304 0.23927169 -0.07843435 1.2935737 -0.61294883
0.24705413 -0.044896003 1.4459772 0.7753435 1.8189472 0.95466375 -1.1341202 -0.32378906
-0.18548049 1.5953146 -0.31570962 0.091354676 0.0022572991 0.025448382 -0.027489658 -0.44540066
-1.9578477 -0.084708445 0.4936126 0.10485181 -1.3576778 0.6230072 -0.3348197 0.23180318
-1.302523 -0.3786505 0.05976228 0.7237456 0.25847864 0.6286452 -0.07798056 -0.083981924
-0.19360615 -0.4540497 1.3656292 0.67967844 0.010314871 0.34745842 -0.81356037 0.43073732
1.3927763 -0.91618204 0.3738759 -0.6797892 -0.47994998 0.68010813 -0.06412593 -1.7420001
0.1454578 0.40571007 0.3967545 -0.43511093 0.07425812 -0.92436135 -0.23733567 2.1855068
-0.38926798 -0.31116483 -0.6733443 0.5617915 -0.9471899 -0.8901952 1.0607828 0.12413228
0.42423356 0.47341973 1.4404175 -0.6084068 1.9712043 -0.28243536 0.2699985 -0.21007246
0.63235617 0.93984026 0.45772028 0.20743392 0.30729452 0.6915117 0.46196198 0.44966534
0.64030033 -0.6073159 -1.6376932 0.29691786 0.3536916 -0.26506317 0.28620487 -0.22894397
-0.2241542 1.0138259 0.08944985 0.12208702 0.9303561 -0.59472924 1.3747013 -0.10808965
-1.3433154 -0.38933274 -0.22435555 0.6107442 -0.061423473 -0.085364625 -0.45099676 0.90102524
1.4947063 0.8974493 -0.06987845 0.05756992 0.78093946 -0.15330926 0.9187738 -0.056962162
0.36896154 0.22480455 1.1824173 -0.30235398 0.82211447 0.9056059 0.03418675 -0.7500121
0.272474 0.37500682 -0.7140608 1.2160399 -0.039662007 -0.6021303 0.5004959 -0.09820499
-1.3333427 -0.03349787 0.07469379 0.43987942 -0.943867 -0.042816892 0.050617516 0.138922
0.20057563 0.7092218 0.098005824 0.6336174 0.17103519 0.4253293 0.69104886 -0.62040925
-0.22141235 -0.78153825 -0.5124055 0.51499647 -1.7838013 0.39575112 -0.8376328 -0.11987271
-1.0932155 -1.1338669 0.09829148 -1.3278129 0.14365146 -0.28117397 -0.17765108 -0.105968855
-1.4650357 0.5199952 1.1448601 -0.12943047 0.2141749 0.6344673 0.32913962 -0.8011194
1.7144885 -1.6965739 0.42497328 -0.60532343 -0.15900332 0.8650985 0.25071678 -1.7468984
0.6892087 -0.503377 -0.1847028 -0.93192226 -0.015093359 -1.0737635 0.15470736 2.200532
0.5873532 -0.37647837 0.044830132 -1.1152719 0.041812904 -0.9062185 0.73030335 0.33800447
-0.059543673 0.22567801 1.3056632 0.1604873 0.71593034 0.9352572 -0.93772024 0.1289387
00000000: 9776 14be b8a5 853e c5b7 0d3f 9a9b 1d3f
00000010: baa7 c2be e38e 773e fd91 c33e d92a c7bd
00000020: cf9f c6bf 9a53 f3be b297 423f 6115 c23e
00000030: 2010 4fc0 31a5 183f 66a4 04bf 2ece f9bd
00000040: 4b7d 29be 2d57 b9be 864b 2e3d 9d9d 7dbf
00000050: 4c8c 123f da63 26bf d13e 603d 2dc5 b2bb
00000060: d076 413e b052 0dbf a756 663f 086e cd3f
00000070: b2bc 333e 577f e63e 025b 32be 3eaa 1bbf
00000080: d415 a03f d2c1 bdbf f93c 1d3f eeba 55bf
00000090: 7597 21bf 9037 0e3f 873a 5c3f f633 a0bf
000000a0: a1b7 273f 7d6a 91bf 9c40 60be e9bc 47be
000000b0: 94f3 ab3c 64e9 57bf 5759 0bbe 2601 0a40
000000c0: 9a68 783f 7a2f 14bf ddb4 f1be 602c 07bd
000000d0: a303 753e 30a2 a0bd d393 a53f 37ea 1cbf
000000e0: c2fb 7c3e dfe4 37bd c815 b93f e97c 463f
000000f0: 43d3 e83f d864 743f da2a 91bf aec7 a5be
00000100: 99ee 3dbe 4533 cc3f b1a4 a1be 2918 bb3d
00000110: 32ef 133b 2079 d03c fe31 e1bc 8e0b e4be
00000120: c19a fabf 9f7b adbd caba fc3e 8cbc d63d
00000130: 63c8 adbf 667d 1f3f 7d6d abbe d05d 6d3e
00000140: 13b9 a6bf 7ade c1be 4bc9 743d 6447 393f
00000150: 5057 843e e4ee 203f 46b4 9fbd b7fe abbd
00000160: b140 46be 3479 e8be f0cc ae3f 68ff 2d3f
00000170: b4ff 283c 12e6 b13e 7e45 50bf 9a89 dc3e
00000180: 7e46 b23f e88a 6abf a96c bf3e aa06 2ebf
00000190: 01bc f5be 911b 2e3f 7554 83bd dcf9 debf
000001a0: e4f2 143e 3bb9 cf3e 6823 cb3e dcc6 debe
000001b0: a414 983d f2a2 6cbf 1f08 73be 58df 0b40
000001c0: 224e c7be ff50 9fbe 4b60 2cbf 91d1 0f3f
000001d0: 0a7b 72bf d5e3 63bf bbc7 873f 1139 fe3d
000001e0: 2435 d93e 1264 f23e 9a5f b83f 8cc0 1bbf
000001f0: 6c50 fc3f 5e9b 90be 3e3d 8a3e 3c1d 57be
00000200: 18e2 213f 5f99 703f 505a ea3e 8f69 543e
00000210: b555 9d3e e906 313f 4886 ec3e 893a e63e
00000220: b9ea 233f 0e79 1bbf ee9f d1bf 9e05 983e
00000230: 1117 b53e 5cb6 87be 7289 923e 4a70 6abe
00000240: ae88 65be 0cc5 813f 7c31 b73d c208 fa3d
00000250: d12b 6e3f 2d40 18bf 36f6 af3f 1b5e ddbd
00000260: c2f1 abbf 9f56 c7be 76bd 65be bb59 1c3f
00000270: 2e97 7bbd a6d3 aebd 0ce9 e6be 97a9 663f
00000280: 8952 bf3f 3dbf 653f 6f1c 8fbd 70ce 6b3d
00000290: a6eb 473f 1afd 1cbe c234 6b3f 2851 69bd
000002a0: 87e8 bc3e 2a33 663e 7359 973f 24ce 9abe
000002b0: 1876 523f cad5 673f 6807 0c3d cb00 40bf
000002c0: b681 8b3e e500 c03e b0cc 36bf 32a7 9b3f
000002d0: a174 22bd 3625 1abf 8020 003f b31f c9bd
000002e0: f9aa aabf 1035 09bd 0ff9 983d e037 e13e
000002f0: 45a1 71bf c460 2fbd 5054 4f3d 9241 0e3e
00000300: b363 4d3e 8f8f 353f 47b7 c83d c034 223f
00000310: d923 2f3e c3c4 d93e 94e8 303f 24d3 1ebf
00000320: ebb9 62be e412 48bf 022d 03bf cfd6 033f
00000330: 9a53 e4bf e49f ca3e 1a6f 56bf d37f f5bd
00000340: 7cee 8bbf 8d22 91bf 0b4d c93d c6f5 a9bf
00000350: 5e19 133e 09f6 8fbe 2aea 35be 3306 d9bd
00000360: 4a86 bbbf 681e 053f c78a 923f 6c89 04be
00000370: aa50 5b3e 736c 223f fd84 a83e 2916 4dbf
00000380: 5c74 db3f 5529 d9bf 1996 d93e 7af6 1abf
00000390: c4d1 22be 1877 5d3f f35d 803e 5e9a dfbf
000003a0: fb6f 303f 51dd 00bf bb22 3dbe 7592 6ebf
000003b0: 234a 77bc 1571 89bf 9b6b 1e3e 84d5 0c40
000003c0: c85c 163f c6c1 c0be cd9f 373d 3bc1 8ebf
000003d0: 0244 2b3d f0fd 67bf 29f5 3a3f ec0e ad3e
000003e0: 11e4 73bd 2318 673e f91f a73f c856 243e
000003f0: 3647 373f 046d 6f3f 6f0e 70bf 8208 043e

lstm.bias_ih_l0_reverse f4 [32]
0.53275466 0.15297106 0.075367235 -0.069610596 0.5064092 -0.19525541 -0.25467718 -0.12615578
-0.44845268 -0.23609026 -0.29673246 0.43599135 -0.052999496 0.32413688 0.2800165 -0.107345454
1.5472391 -0.11617246 -0.052020118 0.10262303 0.31562644 -0.41225144 0.3747427 0.10718678
0.14491515 0.52132374 0.6155886 -0.17738676 -0.048961528 -0.13346554 -0.27005443 0.25621372
00000000: 9c62 083f 72a4 1c3e 235a 9a3d 0090 8ebd
00000010: 09a4 013f 09f1 47be 0c65 82be fb2e 01be
00000020: 979b e5be a5c1 71be 51ed 97be 423a df3e
00000030: 0016 59bd 45f5 a53e 535e 8f3e efd7 dbbd
00000040: ee0b c63f d4eb edbd 0c13 55bd 062c d23d
00000050: ca99 a13e 9f12 d3be 46de bf3e be84 db3d
00000060: a364 143e 7975 053f 3797 1d3f e0a4 35be
00000070: e28b 48bd 31ab 08be 9344 8abe 722e 833e

lstm.bias_hh_l0_reverse f4 [32]
0.2706445 -0.0578234 0.40460613 -0.5173782 0.030252261 0.20828028 -0.57275194 -0.44083056
-0.091262 0.22136629 -0.42688268 0.04327076 0.4741895 -0.22030249 0.05253076 0.1649166
1.5779722 -0.0925148 -0.01934688 -0.104940936 0.27405873 0.16802146 -0.04075137 -0.22228171
0.44910786 0.2299629 0.06938103 -0.68661124 0.28922176 -0.102087095 0.031701274 -0.003508394
00000000: ea91 8a3e 3bd8 6cbd 8928 cf3e e672 04bf
00000010: 97d3 f73c 6d47 553e df9f 12bf 8bb4 e1be
00000020: 92e7 babd d8ad 623e 5e90 dabe ae3c 313d
00000030: f7c8 f23e fa96 61be 7f2a 573d e6df 283e
00000040: fefa c93f 6678 bdbd 597d 9ebc 46eb d6bd
00000050: 6d51 8c3e d10d 2c3e e9ea 26bd d19d 63be
00000060: 77f1 e53e 657b 6b3e a417 8e3d c1c5 2fbf
00000070: e014 943e 0a13 d1bd 32d9 013d 15ed 65bb

lstm.weight_ih_l1 f4 [32, 16]
0.090756536 0.606081 1.3635935 0.5038254 -0.38829413 1.4314346 -0.46105483 1.7421598
-0.016375028 -0.077332765 0.66331935 1.2913866 -1.3994621 -0.12001354 -0.65616405 -0.86121225
-0.04291082 -1.8248185 1.0526055 0.40506378 0.83355606 0.701581 -0.54391295 0.07517204
-0.5825113 0.53737074 -0.15929723 -0.46257994 -0.6508697 -1.5981745 0.44960302 0.96928936
-0.7982306 0.23953053 0.22304542 -0.16411148 -0.122943595 -0.12285041 -1.7605983 1.3364016
1.0354626 -0.5885326 -0.60851663 1.6287482 -0.9461909 0.16241899 -0.96764797 -0.56232333
1.7748532 0.045115065 -1.0978156 -0.35164928 -0.10648121 -0.2516207 -2.6561203 -0.951401
-0.23599742 1.4556974 -0.27136722 -0.06879322 -0.6683899 1.3652776 0.028691752 -0.0977358
0.21380669 1.0512229 -0.36498898 -0.54844594 0.20937137 0.99312556 -0.29099208 0.013280746
-1.3676366 0.54535556 -0.16279674 0.723036 -1.7788262 0.045904703 -0.54579437 0.1281951
0.34207943 0.37296247 -0.91335565 -0.92897034 -0.22738571 0.2935029 0.0991359 1.5130469
0.5853425 -0.11575087 0.35225278 0.50672466 0.5519207 0.31548938 0.16716422 0.075861335
-0.28533655 0.30551684 -0.67123806 -0.21765447 -0.2337 0.45956695 -1.5438442 1.5529876
-0.016010208 1.5064114 -0.585724 0.5087077 -1.6344217 0.5223887 -0.17038576 0.27334827
-0.20826682 -0.19029231 -0.24119748 -0.14323974 0.19061118 -0.29944795 1.2863526 0.13510288
-2.014826 0.81050324 0.04712937 -0.15339121 -1.5208554 0.567449 0.102251895 -0.23792996
0.016128633 1.1752642 -0.49626598 0.8443937 -0.5955609 0.63710135 0.7080719 2.0236695
-1.2694211 0.06650174 -0.8456902 0.59181684 -0.5103964 -0.9875723 -0.57373226 0.8269081
0.09939939 -0.63597435 -0.9100835 -0.00258873 -0.15785547 1.3370863 -0.3648506 0.6463038
-0.037043467 0.78170526 -1.187656 -1.5554224 1.0827429 -2.1464634 0.33299196 -0.10128862
0.35575655 0.7819742 0.4841337 -0.7263482 -0.868236 0.9176205 -0.5967697 1.3055207
-0.7430449 1.1620462 -0.082209535 1.1803801 -1.2413738 0.66527396 -0.83949375 -0.25804916
0.8282745 0.8952561 -1.433792 -0.022034526 -1.4021506 0.30840412 -0.02036322 0.245202
-0.66260844 0.98111403 0.1502701 -0.8078301 -1.479833 0.5366486 -0.3761369 -1.1048422
0.5268434 0.7499954 -1.1250676 -0.16483764 0.13406903 -0.77552754 -0.80508226 1.2891384
-1.2653445 -0.7800108 -0.14830756 0.31471997 -1.2540244 0.32754886 -0.06720158 0.05743802
-0.90012276 -0.315046 -0.7194543 0.46979183 -0.60147214 -0.2273422 0.43025604 -0.30192116
0.6812942 0.58883095 -0.42675698 -0.1634676 0.45053613 -0.7587668 1.4612378 0.08704276
0.07750557 0.23808496 0.1154064 0.117085 -0.27498722 0.43302518 -0.04961867 2.0169017
-0.7442082 1.7526337 -0.4439783 -0.47094357 -0.62580055 -0.06416558 0.30953106 0.454802
0.8669946 0.7063611 0.9286074 -0.7028074 0.40971866 0.18628295 1.0445844 -0.7883055
-1.5622913 -0.2701552 0.4290016 -0.011849279 -2.3043177 0.46678215 0.29128635 -0.15335599
00000000: 90de b93d 2028 1b3f 3b8a ae3f b4fa 003f
00000010: 7dce c6be 4039 b73f 610f ecbe 18ff de3f
00000020: ec24 86bc a460 9ebd 4ccf 293f 284c a53f
00000030: 9321 b3bf a9c9 f5bd 5efa 27bf 6878 5cbf
00000040: 42c3 2fbd a793 e9bf c7bb 863f 8564 cf3e
00000050: ee63 553f d09a 333f e13d 0bbf ccf3 993d
00000060: 761f 15bf 2191 093f d01e 23be 47d7 ecbe
00000070: 669f 26bf fb90 ccbf 5e32 e63e 5923 783f
00000080: d758 4cbf 7e47 753e 0566 643e d70c 28be
00000090: dac9 fbbd ff98 fbbd 495b e1bf 350f ab3f
000000a0: 0a8a 843f 13aa 16bf bfc7 1bbf d27a d03f
000000b0: 9139 72bf 2a51 263e c7b7 77bf 6cf4 0fbf
000000c0: 642e e33f 93ca 383d 3985 8cbf 600b b4be
000000d0: d212 dabd 6ed4 80be e0fd 29c0 048f 73bf
000000e0: 4fa9 71be 4b54 ba3f a5f0 8abe 76e3 8cbd
000000f0: 9a1b 2bbf 6bc1 ae3f f70a eb3c b529 c8bd
00000100: 24f0 5a3e 798e 863f d6df babe f466 0cbf
00000110: 7365 563e 7a3d 7e3f eafc 94be 7c97 593c
00000120: b70e afbf 6c9c 0b3f 30b4 26be e318 393f
00000130: 94b0 e3bf 9206 3c3d 2eb9 0bbf 9445 033e
00000140: 0925 af3e f0f4 be3e add1 69bf 00d1 6dbf
00000150: cdd7 68be 0346 963e c307 cb3d 85ab c13f
00000160: 02d9 153f cb0e edbd 7a5a b43e b5b8 013f
00000170: ad4a 0d3f d387 a13e 192d 2b3e 305d 9b3d
00000180: a217 92be b46c 9c3e 42d6 2bbf d0e0 5ebe
00000190: 0e4f 6fbe 5c4c eb3e b09c c5bf 4cc8 c63f
000001a0: d727 83bc 17d2 c03f 02f2 15bf ab3a 023f
000001b0: bb34 d1bf 44bb 053f 9b79 2ebe 4ef4 8b3e
000001c0: e643 55be fddb 42be 79fc 76be 70ad 12be
000001d0: 942f 433e 3e51 99be 34a7 a43f 6958 0a3e
000001e0: e9f2 00c0 247d 4f3f ba0a 413d 9612 1dbe
000001f0: 64ab c2bf 5644 113f 7169 d13d e9a3 73be
00000200: 3220 843c 0f6f 963f 9316 febe 2f2a 583f
00000210: ae76 18bf 1319 233f 3344 353f cd83 0140
00000220: 647c a2bf 1032 883d 277f 58bf 4f81 173f
00000230: 57a9 02bf 8ad1 7cbf 1ee0 12bf 40b0 533f
00000240: e891 cb3d 37cf 22bf 3bfb 68bf afa7 29bb
00000250: dda4 21be a525 ab3f b3cd babe 2a74 253f
00000260: e4ba 17bd d61d 483f 1d05 98bf 1518 c7bf
00000270: 5297 8a3f a85f 09c0 ec7d aa3e 6870 cfbd
00000280: b925 b63e 762f 483f 5fe0 f73e f5f1 39bf
00000290: b744 5ebf 2de9 6a3f e6c5 18bf 4d1b a73f
000002a0: 3138 3ebf eebd 943f 795d a8bd b216 973f
000002b0: 56e5 9ebf 654f 2a3f 10e9 56bf 051f 84be
000002c0: cc09 543f 812f 653f 7f86 b7bf c081 b4bc
000002d0: ac79 b3bf 25e7 9d3e c4d0 a6bc 3c16 7b3e
000002e0: b5a0 29bf 4a2a 7b3f 68e0 193e f4cd 4ebf
000002f0: 2b6b bdbf cd61 093f 0495 c0be 786b 8dbf
00000300: 36df 063f b3ff 3f3f 3702 90bf 33cb 28be
00000310: 6449 093e f988 46bf df19 4ebf 7d02 a53f
00000320: cff6 a1bf caae 47bf f0dd 17be fa22 a13e
00000330: df83 a0bf 7cb4 a73e fba0 89bd 2144 6b3d
00000340: 726e 66bf b64d a1be 282e 38bf 8e88 f03e
00000350: 14fa 19bf 65cc 68be 854a dc3e 6995 9abe
00000360: 4c69 2e3f a0bd 163f e47f dabe 0d64 27be
00000370: acac e63e 8a3e 42bf d709 bb3f 7943 b23d
00000380: 3ebb 9e3d 8bcc 733e 315a ec3d 43ca ef3d
00000390: 20cb 8cbe 7ab5 dd3e f23c 4bbd eb14 0140
000003a0: 6e84 3ebf 4d56 e03f 2051 e3be 841f f1be
000003b0: 7734 20bf 3e69 83bd db7a 9e3e cfdb e83e
000003c0: 5cf3 5d3f 15d4 343f 37b9 6d3f 30eb 33bf
000003d0: a5c6 d13e f5c0 3e3e f1b4 853f 64ce 49bf
000003e0: 29f9 c7bf c851 8abe 19a6 db3e 7a23 42bc
000003f0: f179 13c0 12fe ee3e 7c23 953e 5a09 1dbe

lstm.weight_hh_l1 f4 [32, 8]
0.39232495 -1.486791 0.59430265 -0.050722227 -0.4586609 -0.5455225 1.0695735 0.08101414
-1.224896 0.047391064 -0.261984 0.5201543 0.89612055 -0.6836137 -0.17780283 0.4440438
1.7709792 -0.48776045 0.44882017 0.76268107 0.8703659 -0.42833254 0.038833447 -1.1404765
2.396603 1.3826556 1.9213445 -0.9513235 -2.4309587 -1.5895307 2.5400555 1.1230388
0.6320506 -0.37755382 1.2138824 -1.2236123 -0.19925968 -0.18141074 0.38997072 1.622684
0.5147154 -1.1339922 0.6123165 -0.92168176 -1.2964338 -0.54837364 0.76490307 -0.10936331
-0.5179419 -0.60655224 0.7723621 -0.39111546 -1.3964819 -0.10572569 0.3322099 0.857874
-0.35162738 0.42890447 0.26604146 -0.18058111 -0.2511471 0.44550952 -0.326604 -0.24454021
-0.018090876 -1.5964489 0.12594888 -0.9093058 0.09032749 -0.87420493 0.092528 0.2765904
0.086363666 0.38787183 0.13640422 -0.26385766 0.24031536 0.3467241 -0.19275981 1.1319166
0.17655489 -0.3166166 -0.13563398 -0.4369869 -0.12423668 -1.7143787 0.4500294 -0.109519325
1.496365 -0.28865987 1.2795223 -0.023388397 -0.680414 -1.926994 0.81988907 0.16601373
0.21248211 -1.2869842 0.04659832 -0.5245898 0.614102 -1.7364026 0.17621668 0.9796082
0.15541862 -0.32715416 -0.32467282 -0.54443884 -0.93159413 -0.5340005 1.0707744 0.6321727
-0.64154917 -1.2063009 0.2702271 0.114203095 -0.37529302 -1.4760016 0.19121543 -0.0076784785
0.2741592 0.24332042 -0.40240774 0.21094805 1.9472884 0.77114516 -1.1031871 0.25654337
-1.3326976 1.7176255 0.48931694 -0.8226408 -0.7745254 0.47899386 -0.25306934 0.08229669
-1.334184 -0.8164634 -0.4799561 1.0804031 0.01865337 0.0999348 0.4134866 -0.25396165
-1.1207576 0.925926 -0.93841445 -0.76476705 0.22553062 1.4625868 -0.3134189 0.2526416
0.32251954 -0.25477624 0.31312078 0.20280749 0.39397332 1.2138686 -0.15760243 -0.43506986
1.1124796 -2.8534517 0.15281305 -0.28909612 -0.5156485 0.8335165 0.45281053 1.027034
0.9060954 -1.6253467 1.0239574 0.0017205365 -0.7611026 -0.8408788 0.983357 -0.3870258
-0.8557591 1.6015731 -0.35971317 -0.2788054 -0.53235954 0.37287232 -0.7887549 0.05760547
0.89799243 0.38687426 1.6546298 -1.2240696 -1.331404 -0.7376211 1.1281955 -0.28795475
-0.43578508 -1.9261895 0.36592746 -0.354953 -0.10244515 -0.37598076 1.1846242 -0.18925947
-0.25181127 -0.30165768 0.56161183 0.5829318 0.8296453 -0.9036096 -0.66851664 0.9783222
0.95063496 -0.82549113 0.30727568 -0.11399084 0.22273202 -0.5815164 -0.16844815 -0.7387273
1.0263147 -0.1788421 0.3216234 0.36606374 -0.91849977 -1.4194791 0.9987876 0.12974276
0.011475886 -0.47234488 0.52681285 -0.5446323 0.13783437 -0.51255697 -0.15770623 0.6044128
1.163634 -1.192228 1.1751342 -0.07343623 -2.1594625 -1.0594182 1.0375835 -0.42518103
-0.17302504 -0.7024018 0.79491395 -0.6988542 -0.8599918 -1.5246404 -0.024714388 0.28815615
-0.12092838 0.85226285 -0.65049094 -0.8936284 0.6332204 0.9366913 -0.7087995 0.7091591
00000000: d1de c83e 2b4f bebf 3824 183f 1cc2 4fbd
00000010: 9ad5 eabe 5da7 0bbf c9e7 883f beea a53d
00000020: 64c9 9cbf 221d 423d c422 86be d528 053f
00000030: 2868 653f 4f01 2fbf f211 36be b559 e33e
00000040: 72af e23f bdbb f9be c2cb e53e 113f 433f
00000050: 4dd0 5e3f 674e dbbe d20f 1f3d 22fb 91bf
00000060: f261 1940 dcfa b03f 9eee f53f f089 73bf
00000070: d494 1bc0 be75 cbbf 4590 2240 bcbf 8f3f
00000080: 11ce 213f bc4e c1be 8060 9b3f 549f 9cbf
00000090: bb0a 4cbe bdc3 39be 3eaa c73e 1cb4 cf3f
000000a0: 63c4 033f a826 91bf c6c0 1c3f 56f3 6bbf
000000b0: 8bf1 a5bf 3762 0cbf b0d0 433f dff9 dfbd
000000c0: d797 04bf 0247 1bbf 86b9 453f 4940 c8be
000000d0: ebbf b2bf b686 d8bd 6a17 aa3e a19d 5b3f
000000e0: 8108 b4be 5e99 db3e 9636 883e 41ea 38be
000000f0: 5a96 80be d319 e43e a438 a7be c068 7abe
00000100: 5133 94bc 7058 ccbf bef8 003e 44c8 68bf
00000110: 9efd b83d e5cb 5fbf 527f bd3d 429d 8d3e
00000120: 6fdf b03d 2397 c63e 8cad 0b3e 5a18 87be
00000130: 3b15 763e d285 b13e d462 45be a5e2 903f
00000140: ceca 343e 921b a2be a2e3 0abe bfbc dfbe
00000150: cd6f febd c370 dbbf 416a e63e ab4b e0bd
00000160: e388 bf3f 3acb 93be 63c7 a33f 0699 bfbc
00000170: 9d2f 2ebf bda7 f6bf 40e4 513f 81ff 293e
00000180: e994 593e e6bb a4bf e1dd 3e3d 844b 06bf
00000190: ca35 1d3f 7142 debf 2572 343e 9ac7 7a3f
000001a0: 0f26 1f3e c080 a7be 843b a6be 5860 0bbf
000001b0: f47c 6ebf 42b4 08bf 230f 893f 12d6 213f
000001c0: 913c 24bf 1168 9abf 355b 8a3e 50e3 e93d
000001d0: 6826 c0be 9fed bcbf facd 433e bf9b fbbb
000001e0: 985e 8c3e fd28 793e 6308 cebe c402 583e
000001f0: bf40 f93f c569 453f 3c35 8dbf a759 833e
00000200: d695 aabf 27db db3f c087 fa3e 9698 52bf
00000210: 4c47 46bf af3e f53e 4e92 81be 2b8b a83d
00000220: 8bc6 aabf bf03 51bf cebc f5be a64a 8a3f
00000230: f4ce 983c 9eaa cc3d 84b4 d33e 4307 82be
00000240: fc74 8fbf 7d09 6d3f ee3b 70bf c6c7 43bf
00000250: 80f1 663e 0b36 bb3f 7178 a0be 3d5a 813e
00000260: 4821 a53e 0872 82be 5e51 a03e c4ac 4f3e
00000270: dfb6 c93e 0c60 9b3f 8862 21be 7ac1 debe
00000280: bb65 8e3f f49e 36c0 067b 1c3e 6804 94be
00000290: 8a01 04bf 5661 553f c8d6 e73e da75 833f
000002a0: def5 673f 5c0b d0bf 0911 833f a083 e13a
000002b0: 9fd7 42bf d543 57bf 49bd 7b3f 3f28 c6be
000002c0: 0713 5bbf 5900 cd3f 532c b8be 95bf 8ebe
000002d0: b748 08bf 1fe9 be3e d7eb 49bf b7f3 6b3d
000002e0: d5e2 653f 6214 c63e e9ca d33f 50ae 9cbf
000002f0: 726b aabf bdd4 3cbf b668 903f ce6e 93be
00000300: 391f dfbe 618d f6bf d85a bb3e 66bc b5be
00000310: c3ce d1bd 8d80 c0be c4a1 973f 3ccd 41be
00000320: 68ed 80be e072 9abe cbc5 0f3f 053b 153f
00000330: a263 543f f552 67bf e823 2bbf 5373 7a3f
00000340: d05c 733f 6353 53bf 3d53 9d3e 0874 e9bd
00000350: dd13 643e 42de 14bf ac7d 2cbe 3b1d 3dbf
00000360: 485e 833f 6222 37be d3ab a43e b56c bb3e
00000370: cd22 6bbf 7eb1 b5bf 8bb0 7f3f 49db 043e
00000380: 5b05 3c3c 30d7 f1be 35dd 063f 066d 0bbf
00000390: 7424 0d3e ef36 03bf be7d 21be ccba 1a3f
000003a0: f5f1 943f ed9a 98bf cc6a 963f bc65 96bd
000003b0: a234 0ac0 049b 87bf 89cf 843f 54b1 d9be
000003c0: 7a2d 31be 9bd0 33bf 7b7f 4b3f 1ce8 32bf
000003d0: 6c28 5cbf 6b27 c3bf d475 cabc 3489 933e
000003e0: 4ca9 f7bd e62d 5a3f 9386 26bf d5c4 64bf
000003f0: bb1a 223f 00cb 6f3f e273 35bf 738b 353f

lstm.bias_ih_l1 f4 [32]
-0.5578497 -0.4447046 0.15205106 -0.41694903 -0.45516312 -0.5498129 -0.2428013 -0.50158364
-0.76239 -0.102953665 -0.7348526 -0.46194422 -0.61837727 -0.14499179 -1.3342892 0.05933026
-0.32554102 0.032803923 -0.37439895 0.09084835 0.4298951 0.19696501 -0.23751931 -0.35716596
-0.29646015 -0.6926484 0.12653597 -0.84772706 -0.8986051 -0.28225356 -1.2440804 -0.051352657
00000000: 3dcf 0ebf 52b0 e3be 46b3 1b3e 587a d5be
00000010: 240b e9be 8ac0 0cbf e7a0 78be c967 00bf
00000020: fe2b 43bf 5fd9 d2bd 4d1f 3cbf f483 ecbe
00000030: f94d 1ebf ba78 14be fdc9 aabf 4904 733d
00000040: 50ad a6be 685d 063d 38b1 bfbe b30e ba3d
00000050: 361b dc3e 32b1 493e 4338 73be 75de b6be
00000060: a0c9 97be 6851 31bf a592 013e a404 59bf
00000070: fc0a 66bf 8a83 90be 073e 9fbf 2a57 52bd

lstm.bias_hh_l1 f4 [32]
-0.6423623 0.019759988 0.3175143 -0.98145074 -0.55418503 -0.09662794 -0.57842827 -0.24340796
-1.1668991 -0.545786 -0.49688628 -0.01735067 -0.43144292 -0.49853653 -0.928092 0.058330584
0.31977928 0.012704012 0.20459716 0.1268732 0.16964081 -0.0042127883 -0.37687773 -0.24777095
-0.64080846 -0.5258621 -0.012249776 -0.84038246 -0.435038 -0.61819214 -1.1255301 -0.31845084
00000000: db71 24bf b3df a13c 3c91 a23e 5b40 7bbf
00000010: 12df 0dbf dfe4 c5bd e013 14bf f03f 79be
00000020: f35c 95bf a2b8 0bbf e167 febe fe22 8ebc
00000030: 16e6 dcbe 2e40 ffbe 7097 6dbf 0dec 6e3d
00000040: 1cba a33e 7d24 503c eb81 513e 0ceb 013e
00000050: 52b6 2d3e 6e0b 8abb 1ef6 c0be abb7 7dbe
00000060: 060c 24bf e69e 06bf 49b3 48bc 4e23 57bf
00000070: 4dbd debe d741 1ebf 5f11 90bf fd0b a3be

lstm.weight_ih_l1_reverse f4 [32, 16]
0.19315194 -0.18173589 0.73154473 -0.24508815 -0.24864389 0.96306044 -0.28060186 0.22682412
-1.6709101 1.1916404 -0.22149801 -0.101935335 -1.423952 -0.084810585 0.9579237 -0.32208866
0.3717711 -0.2755806 0.8802184 0.6692512 -0.087592036 0.7365895 -0.19198148 0.5722207
-1.1273608 0.49684852 -0.35037524 0.05889633 -0.83638835 -0.0037567012 1.0036329 -0.9686955
0.070190884 -0.36382943 1.0808789 -0.4379556 0.23163137 0.4933669 -0.15982223 -0.32217902
-0.9989942 1.0909859 -0.6043983 0.15328829 -1.1574396 -0.501218 0.83318764 -0.77746636
1.6391399 0.0018849919 0.039552823 -0.8849312 1.1886647 -1.0287728 -1.0444918 -0.66202545
0.32747546 -0.14751904 0.45864096 0.9368172 -0.24303505 0.48484236 0.14742514 -0.41521716
0.6962899 -1.3731854 0.7441147 -1.155509 0.28266564 0.381664 0.03022133 -1.2502664
-1.0673283 2.5324097 -1.6255845 -1.1135404 -0.5026624 -1.5119469 2.2419753 0.26524398
0.104612455 -0.21640779 0.7116668 -0.0131910695 0.09763884 0.9766073 -0.4269036 0.301842
-1.9735627 1.2645369 -0.67819524 0.029889349 -1.3673205 -0.0949727 0.59533066 -0.6368981
-0.8896496 -0.30928138 0.060498685 0.17093195 0.003251871 -0.14006555 0.46345896 0.1126401
0.46043408 0.5346489 -0.3843056 -0.75514483 0.11994129 -0.31600493 0.31688815 -0.73162
0.72741026 -0.72560066 1.1021428 -0.41243875 0.62077177 0.15080656 0.7376297 -2.1782808
0.14449738 3.3876781 -0.6261808 0.14752208 -0.5351258 -0.36783317 0.2293682 0.5985599
0.16841754 0.1746447 0.2762841 -0.001680437 0.055043448 0.106576525 0.3398427 -0.23375657
0.06278907 0.33850136 0.03023029 0.17216237 -0.10619901 -0.00064796564 -0.28716317 0.24156538
0.31273177 -0.043471355 0.20809479 -0.22951883 -0.11308695 -0.089857206 -0.13057043 0.20459175
-0.19878484 -0.014452618 -0.099296585 -0.14317255 -0.035234977 -0.24133155 -0.32927027 0.13598238
0.17763636 -0.24479328 0.040766537 -0.18086822 -0.26837748 -0.13427961 0.2880327 0.18210001
0.09346679 -0.3091264 -0.07382328 -0.16297719 0.09923703 0.24745762 0.3127673 -0.31464684
0.15122572 -0.10170401 0.2336069 0.049021672 -0.34258145 0.08433297 0.101773724 0.08733349
-0.102268524 0.21046571 0.24143548 0.16357575 0.32903454 -0.2185502 -0.10859691 0.27137554
0.309191 -0.07390404 0.0652426 0.19666693 0.13153686 0.25595236 -0.22999029 -0.3444685
-0.29842055 -0.20271264 0.119316 0.159433 -0.15629505 0.31150597 0.1743549 0.31995037
-0.105098896 -0.13164732 0.07022634 -0.29826376 0.03948481 0.05860856 0.028124254 0.047004905
0.03236153 0.10487708 -0.23205489 -0.32091978 -0.3453583 -0.20192403 -0.28451645 0.11180627
0.21676289 0.097402796 -0.042981017 0.06336656 -0.21475859 0.2093812 -0.018433936 0.113407515
0.10477639 -0.14356688 -0.25091654 -0.13274486 0.1414857 -0.030163445 0.09589415 0.13357942
0.12917702 0.27606934 -0.046134192 -0.25204375 0.12099083 -0.32594615 0.18894887 0.09467691
0.18463072 -0.100019656 0.13360171 0.040115073 -0.2707538 -0.19341394 -0.12086662 -0.15351476
00000000: 9fc9 453e f918 3abe 8446 3b3f 63f8 7abe
00000010: 819c 7ebe 218b 763f 0cab 8fbe 9544 683e
00000020: 62e0 d5bf ac87 983f 60d0 62be 79c3 d0bd
00000030: 0f44 b6bf 2cb1 adbd 7d3a 753f cee8 a4be
00000040: c858 be3e e718 8dbe fe55 613f 0c54 2b3f
00000050: 7463 b3bd 2191 3c3f cb96 44be 0e7d 123f
00000060: 5c4d 90bf ee62 fe3e 6264 b3be 473d 713d
00000070: 8c1d 56bf fd32 76bb 0b77 803f 6efc 77bf
00000080: 3dc0 8f3d da47 babe 3d5a 8a3f b73b e0be
00000090: c630 6d3e 969a fc3e 70a8 23be a6f4 a4be
000000a0: 15be 7fbf 6da5 8b3f d9b9 1abf 9bf7 1c3e
000000b0: fb26 94bf d34f 00bf c94b 553f 0908 47bf
000000c0: 56cf d13f d511 f73a 2402 223d da8a 62bf
000000d0: 2a26 983f d4ae 83bf e8b1 85bf 807a 29bf
000000e0: ddaa a73e 3b0f 17be fdd2 ea3e 41d3 6f3f
000000f0: 2ede 78be 423d f83e 9ef6 163e 5897 d4be
00000100: 0e40 323f 8ac4 afbf 4d7e 3e3f b8e7 93bf
00000110: 8db9 903e 7769 c33e b992 f73c bb08 a0bf
00000120: 379e 88bf 0013 2240 2713 d0bf 7e88 8ebf
00000130: 7cae 00bf 7a87 c1bf 867c 0f40 0fce 873e
00000140: 0e3f d63d 019a 5dbe cc2f 363f 5b1f 58bc
00000150: dff6 c73d f002 7a3f 1c93 dabe 098b 9a3e
00000160: b49d fcbf 58dc a13f 349e 2dbf 82da f43c
00000170: 5c04 afbf 0c81 c2bd 9767 183f c10b 23bf
00000180: 14c0 63bf 215a 9ebe 78cd 773d c908 2f3e
00000190: 581d 553b 586d 0fbe 7e4a ed3e daaf e63d
000001a0: 04be eb3e c0de 083f b4c3 c4be 2c51 41bf
000001b0: c7a3 f53d 66cb a1be 2a3f a23e 734b 3bbf
000001c0: 8f37 3a3f f7c0 39bf 0413 8d3f 2c2b d3be
000001d0: e6ea 1e3f 096d 1a3e 4dd5 3c3f f468 0bc0
000001e0: 1ff7 133e b8cf 5840 634d 20bf 0710 173e
000001f0: 01fe 08bf a154 bcbe 7fdf 6a3e 393b 193f
00000200: a675 2c3e 0fd6 323e 1c75 8d3e 1c42 dcba
00000210: 3d75 613d cb44 da3d ddff ad3e e25d 6fbe
00000220: 8e97 803d 0d50 ad3e 83a5 f73c 554b 303e
00000230: de7e d9bd 3ddc 29ba 0d07 93be ea5c 773e
00000240: 611e a03e 050f 32bd cd16 553e fc06 6bbe
00000250: 219a e7bd 0e07 b8bd 41b4 05be 8080 513e
00000260: 418e 4bbe acca 6cbc 025c cbbd d39b 12be
00000270: 8d52 10bd 9e1f 77be 1d96 a8be f73e 0b3e
00000280: 4ee6 353e 17ab 7abe d0fa 263d 8535 39be
00000290: c668 89be 9880 09be 0679 933e 6d78 3a3e
000002a0: 846b bf3d d145 9ebe a930 97bd 7ee3 26be
000002b0: c93c cb3d 8865 7d3e 0923 a03e 6419 a1be
000002c0: eada 1a3e 314a d0bd a636 6f3e f3ca 483d
000002d0: d666 afbe c4b6 ac3d be6e d03d e7db b23d
000002e0: 2972 d1bd 5384 573e dd3a 773e 6780 273e
000002f0: 3777 a83e a0cb 5fbe 0f68 debd bcf1 8a3e
00000300: 484e 9e3e 005b 97bd ea9d 853d 0e63 493e
00000310: 99b1 063e 300c 833e 9382 6bbe 2d5e b0be
00000320: 94ca 98be e793 4fbe f25b f43d 6842 233e
00000330: cf0b 20be b67d 9f3e 178a 323e 89d0 a33e
00000340: 173e d7bd 8ece 06be d4d2 8f3d 07b6 98be
00000350: d3ba 213d 880f 703d d664 e63c 3788 403d
00000360: 868d 043d cbc9 d63d cc9f 6dbe 994f a4be
00000370: ced2 b0be 2cc5 4ebe 24ac 91be b0fa e43d
00000380: 17f7 5d3e 1e7b c73d dd0c 30bd 54c6 813d
00000390: ade9 5bbe 0668 563e c402 97bc 3342 e83d
000003a0: 0195 d63d 3203 13be 2278 80be 45ee 07be
000003b0: a1e1 103e 5419 f7bc 2764 c43d 0bc9 083e
000003c0: fb46 043e f658 8d3e 35f7 3cbd e10b 81be
000003d0: 0aca f73d 6ae2 a6be d07b 413e f8e5 c13d
000003e0: d60f 3d3e 1bd7 ccbd e3ce 083e b44f 243d
000003f0: 3ea0 8abe 4e0e 46be eb88 f7bd f932 1dbe
