models/5pred_biLSTM_whole_weights.pth (torch, 18434 bytes, 18 tensors)

lstm.weight_ih_l0 f4 [32, 10]
0	0x3ee8ea90	0.45491457
1	0xbf6c1d0c	-0.9223182
2	0x3c0d858f	0.0086378
3	0x3e3e50d7	0.18585525
4	0xbca37ef6	-0.019958
5	0xbecc70a6	-0.39929694
6	0xbe244287	-0.16041003
7	0x3f14c247	0.58108944
8	0x3eea4c93	0.45761546
9	0xbedb1b98	-0.4279449
10	0xbd50f6c7	-0.051016595
11	0xbd057a2d	-0.03258722
12	0xbeff14a0	-0.49820423
13	0x3eb4a0ab	0.3527883
14	0x3e3c41da	0.18384495
15	0xbed22b55	-0.41048685
16	0x3f3e9dba	0.7445942
17	0xbdce404c	-0.100708574
18	0xbe14d486	-0.14534196
19	0xbed2a05d	-0.41137972
20	0x3f09699b	0.53676766
21	0xbf0e8e1f	-0.5568561
22	0xbeb048ea	-0.3443063
23	0xbea607c2	-0.32427794
24	0x3d2816d7	0.041037407
25	0xbe93d51a	-0.2887352
26	0xbf319672	-0.69370186
27	0x3ec3b835	0.38226476
28	0xbe20f1db	-0.1571726
29	0xbf83cab3	-1.0296234
30	0xbf213640	-0.62973404
31	0xbe8205c2	-0.25395018
32	0x3eb3e992	0.35139138
33	0x3ead237d	0.33816138
34	0xbe5dfee2	-0.21679261
35	0xbe70ddc4	-0.23522097
36	0xbe9c34f8	-0.30509162
37	0xbf16138e	-0.5862359
38	0xbed817f4	-0.42205775
39	0xbf7000ff	-0.9375152
40	0xbda98456	-0.08277194
41	0xbf512134	-0.8169129
42	0x3f01c064	0.5068419
43	0xbf86e3d9	-1.0538284
44	0x3da4e199	0.08050842
45	0x3e91d84c	0.28485334
46	0x3e000588	0.1250211
47	0xbebe0863	-0.37115774
48	0x3e88964d	0.2667717
49	0xbe8f5062	-0.27991015
50	0x400a9606	2.1654067
51	0xbf8d1194	-1.102099
52	0xbdfc062c	-0.12305865
53	0xbf168249	-0.5879255
54	0xbff2c588	-1.8966532
55	0xbe18b266	-0.14911804
56	0xbe8c53f6	-0.27407807
57	0xbec2cda0	-0.38047504
58	0x3f0fc491	0.5615931
59	0x3da0afd9	0.0784604
60	0x3f356ee6	0.7087234
61	0x3e849b88	0.2589991
62	0x3eccd85f	0.40008828
63	0x3f02a8c4	0.51038766
64	0x3ff943d3	1.9473823
65	0xbefc330f	-0.49257705
66	0x402cfd7d	2.7029717
67	0x3f8a353c	1.0797496
68	0xbf9fd4b7	-1.248679
69	0x3ebefbc3	0.37301454
70	0x3e94b390	0.29043245
71	0xbf6d8dc4	-0.9279444
72	0xbed56bac	-0.4168371
73	0x3f66a463	0.90094584
74	0x3fa94911	1.3225423
75	0x3e093a47	0.13401137
76	0x3ec3f643	0.3827382
77	0xbf1b20d3	-0.6059696
78	0xbfb5d946	-1.4206932
79	0xbf2cbe1b	-0.6747758
80	0x3f02453f	0.5088691
81	0xbf39b2e0	-0.72538567
82	0xbcd4e04e	-0.025985863
83	0x3fa52016	1.2900417
84	0xbf2879d6	-0.65810907
85	0xbf703a82	-0.93839276
86	0x3e57233b	0.21009533
87	0x3f125fcb	0.5717742
88	0x3d67e487	0.056614425
89	0x3eeae9db	0.45881543
90	0xbe8021a7	-0.25025675
91	0xbdc657d9	-0.09684724
92	0xbf895881	-1.0730134
93	0x3e9f6c3a	0.31137258
94	0xbf93de7e	-1.1552274
95	0x3ec88dea	0.39170772
96	0xbedd5c0e	-0.43234295
97	0x3e73d6c0	0.2381239
98	0x3f4ccf45	0.8000377
99	0xbe389cc9	-0.18028559
100	0x3f839e9f	1.0282782
101	0xbeaa1966	-0.33222502
102	0xbeeae9d7	-0.4588153
103	0x3f825ebd	1.0185162
104	0xbf44e932	-0.7691833
105	0x3f484571	0.7823096
106	0xbfca81e5	-1.5820891
107	0x3ea04e8d	0.3130993
108	0xbf86236a	-1.0479558
109	0xbe6d8ad6	-0.23197493
110	0x3d1a7772	0.03771157
111	0x3f3defa0	0.74193764
112	0x3f8e7f27	1.1132554
113	0xbe674439	-0.22584619
114	0xbf619305	-0.8811496
115	0x3e8779da	0.26460153
116	0xbf8fe772	-1.1242507
117	0x3f529a3b	0.82266587
118	0xbee2dea4	-0.44310486
119	0x3f7993d4	0.9749119
120	0xbe86ada6	-0.26304358
121	0xbe93eb35	-0.28890386
122	0xbd1a623b	-0.037691336
123	0xbf5009c0	-0.8126488
124	0x3f57d9eb	0.8431689
125	0x3f29af0f	0.66282743
126	0x3d99e43a	0.07514234
127	0x3ad91177	0.0016560991
128	0x3f2ae383	0.66753405
129	0x3f360f28	0.71116877
130	0x4001f72b	2.030711
131	0x3e9b845f	0.3037443
132	0x3f31c013	0.69433707
133	0xbf430694	-0.7618191
134	0x3f67fe85	0.9062274
135	0x3f768f0e	0.96312034
136	0x3e87a649	0.26494053
137	0x3df81f70	0.12115371
138	0x3e9938ae	0.29926056
139	0x3dc2cd1e	0.09511779
140	0x3e5937d6	0.21212706
141	0xbde93df2	-0.11388768
142	0xbe9ed8d1	-0.31024793
143	0xbf310f6a	-0.69164145
144	0xbdfbe82d	-0.123001434
145	0x3e8b6ece	0.27232975
146	0x3e71991b	0.23593561
147	0xbf691154	-0.91042066
148	0x3f822220	1.0166664
149	0xbeec7087	-0.46179602
150	0x3f2d3e63	0.6767332
151	0xbe83555a	-0.25651056
152	0x3da31ed6	0.07964866
153	0x3f9403dd	1.1563679
154	0xbe42a8c6	-0.19009694
155	0xbc617f87	-0.013763315
156	0xbe299be1	-0.1656337
157	0xbcb9cb6a	-0.022680003
158	0xbf6e4250	-0.93069935
159	0xbf21bf1b	-0.6318223
160	0xbff6dd0a	-1.9286206
161	0x3e297697	0.16549145
162	0x3ee29805	0.44256607
163	0x3ea321d4	0.31861746
164	0xbe4536ee	-0.19259235
165	0x3dc51b29	0.09624321
166	0xbdc1fbc0	-0.094718456
167	0xbeaee00c	-0.3415531
168	0xbd6302f1	-0.055422727
169	0x3d75c7de	0.06000506
170	0xbfdda3b7	-1.7315587
171	0x3ebbcbf8	0.36679053
172	0xbec540f8	-0.3852613
173	0x3ef90501	0.4863663
174	0x3f188beb	0.595885
175	0xbe7bbb40	-0.24583149
176	0x3e937e4b	0.2880729
177	0xbedc9211	-0.4308019
178	0x3eeef4d3	0.4667116
179	0x3c7d3fff	0.015457152
180	0x3ebc6b26	0.36800498
181	0xbfa0a9db	-1.2551836
182	0x3dd4f5cf	0.10398447
183	0x3f347b7f	0.7050094
184	0xbf87f511	-1.0621663
185	0xbf07421c	-0.5283525
186	0xbe9a6f6f	-0.30163142
187	0x3ed5de93	0.41771373
188	0xbff4aaf0	-1.9114666
189	0x3e297bae	0.16551086
190	0x3e974072	0.29541355
191	0x3dc850f6	0.09781067
192	0xbe63f156	-0.22260031
193	0x3f03ab42	0.51433194
194	0xbfa067bb	-1.2531656
195	0x3f04fa44	0.51944375
196	0x3e834800	0.2564087
197	0xbd95181e	-0.072799906
198	0xbf2a79e5	-0.66592246
199	0xbe8e8fd3	-0.27844104
200	0xbf70e0d1	-0.9409304
201	0xbe79a905	-0.24380882
202	0xbe064c35	-0.13115008
203	0x3fa172f3	1.2613205
204	0xbeea7723	-0.4579402
205	0x3eabe404	0.335724
206	0x3ecba0e8	0.397712
207	0xbe6530c3	-0.22381882
208	0x3ea5c0b7	0.32373592
209	0x3e8bb7f8	0.27288795
210	0x3d9c4046	0.07629447
211	0xbf5027ae	-0.81310546
212	0xbecff158	-0.40613818
213	0xbf6c1f44	-0.9223521
214	0xbef590a9	-0.4796193
215	0xbe44d1da	-0.19220677
216	0xbdba4254	-0.09094682
217	0x3e0425df	0.12905072
218	0xbf97f6b3	-1.1872162
219	0x3e607830	0.21920848
220	0x403ce9f6	2.9517798
221	0x3c70980e	0.01468469
222	0xbe44829d	-0.1919045
223	0xbe41301a	-0.18866006
224	0xbd154170	-0.03643936
225	0xbda36e29	-0.07979996
226	0x3ceb3015	0.02870945
227	0xbe714781	-0.23562433
228	0xbd609774	-0.054831937
229	0x3cc4c542	0.024019841
230	0x40195446	2.3957686
231	0x3d8a53bd	0.06754253
232	0xbe80a40a	-0.25125152
233	0x3dcc829c	0.09985849
234	0x3ddc4733	0.10755768
235	0x3d3ad98f	0.045617636
236	0x3df74645	0.1207395
237	0xbdf22e55	-0.118252434
238	0xbe07d8ec	-0.13266343
239	0x3d960375	0.07324878
240	0x3d66d4fb	0.056355458
241	0x3c80940f	0.0156956
242	0xbf1bb03f	-0.60815805
243	0x404f208b	3.2363613
244	0xbf87ac88	-1.0599527
245	0x3f7df2b1	0.9919844
246	0x3c7d7b22	0.015471252
247	0x3f580be9	0.84393173
248	0xbd31906f	-0.043350633
249	0x3e6fd333	0.2342041
250	0x3e91216f	0.2834582
251	0x3e8aa32d	0.27077618
252	0xbf97372b	-1.1813711
253	0x3f4d9b2a	0.80314887
254	0xbe0375cd	-0.12837906
255	0xbe6315ee	-0.22176334

lstm.weight_hh_l0 f4 [32, 8]
0	0x3e16fa00	0.14743805
1	0xbfa3efc9	-1.2807552
2	0x3d5d8e64	0.054090872
3	0xbea0e6d1	-0.314261
4	0x3f0f2d74	0.5592873
5	0x3f3b8368	0.73247385
6	0xbe55ab50	-0.20866132
7	0xbf7dee16	-0.99191415
8	0x3ec4f375	0.38466993
9	0xbeb1eb87	-0.34750006
10	0xbebe8214	-0.37208617
11	0x3eec4bee	0.4615168
12	0xbe147020	-0.14495897
13	0x3e6d19ff	0.23154448
14	0x3f2d5e42	0.6772195
15	0x3ecdb819	0.40179518
16	0xbef6adc2	-0.48179442
17	0xbeff8b12	-0.4991079
18	0x3ee1fa54	0.44136298
19	0x3f1ee025	0.6206077
20	0xbec02163	-0.37525472
21	0x3cb7453a	0.022371877
22	0xbf59a0ca	-0.8501097
23	0xbdc0b7f3	-0.094100855
24	0xbe97a247	-0.29615995
25	0x3eb3861c	0.35063255
26	0x3d28feb2	0.04125852
27	0x3f5ecb4e	0.8702897
28	0xbf37d453	-0.71808356
29	0x3e5167e5	0.20449789
30	0xbf9889a5	-1.1917006
31	0xbf05e7dd	-0.5230692
32	0x3d288928	0.041146427
33	0xbe705794	-0.23470908
34	0x3e9e5717	0.3092582
35	0xbf12871a	-0.572374
36	0xbf4726f8	-0.77793837
37	0x3d880f63	0.0664356
38	0x3ebb8588	0.36625314
39	0xbf6d8c0f	-0.9279184
40	0xbfa080b5	-1.2539278
41	0xbfebc483	-1.8419346
42	0x3ecf3e1c	0.40477073
43	0xbf12f6a0	-0.5740757
44	0xbf2d8269	-0.67777115
45	0xbe839150	-0.25696802
46	0x402898e8	2.6343327
47	0x3f786ba8	0.9703927
48	0xbf6bbfb9	-0.9208942
49	0x3f83a424	1.0284467
50	0x3e6a29d2	0.22867516
51	0x3f613127	0.87965626
52	0x3e75c5f6	0.24001297
53	0x3ea8dd9d	0.32981578
54	0x3d518260	0.051149726
55	0xbda6745d	-0.08127663
56	0x3dfcb556	0.123392746
57	0x3fb3e458	1.405406
58	0xbe8a1ffa	-0.2697752
59	0xbf482e5e	-0.7819575
60	0xbe74e168	-0.2391411
61	0x3fd3417b	1.6504358
62	0xbeac6f63	-0.3367873
63	0x3ee24e43	0.44200334
64	0x3f4f5ecc	0.81004024
65	0xbf2134ec	-0.6297138
66	0x3f6b8048	0.91992617
67	0x3eac32dc	0.33632553
68	0x3ed3d1dd	0.4137105
69	0xbee2148c	-0.441563
70	0x3e6d1956	0.23154196
71	0x3e678451	0.22609068
72	0x3f99d5cc	1.2018371
73	0x3eaa7c70	0.33298063
74	0x3d7b70a6	0.061386727
75	0x3fb06378	1.3780355
76	0x3e821ca5	0.2541248
77	0xbf82b7a5	-1.0212294
78	0x3f02f3da	0.5115334
79	0x3f0689ba	0.52553904
80	0xbf48183e	-0.7816199
81	0xbe9bbd95	-0.30418077
82	0x3e5a79a1	0.2133546
83	0x3f6034bb	0.8758046
84	0xbf34fba6	-0.70696485
85	0x3eebbde5	0.46043316
86	0x3eef840c	0.4678043
87	0x3ef4cae0	0.4781103
88	0x3ea384d0	0.31937265
89	0xbfb30fe2	-1.3989222
90	0x3faba300	1.3409119
91	0x3f488439	0.78326756
92	0x3eea2830	0.45733786
93	0xbe0aeada	-0.13566151
94	0x3eed1304	0.4630357
95	0x3cf3482b	0.029697498
96	0x3f180b5d	0.5939234
97	0x3f1538af	0.5828962
98	0x3eb8980d	0.36053506
99	0xbf8571a1	-1.0425302
100	0x3dc8d9a2	0.09807135
101	0x3e97dceb	0.29660735
102	0xbe5a2184	-0.21301848
103	0xbf7af07a	-0.9802319
104	0xbe69e8b2	-0.22842672
105	0xc0142b65	-2.3151486
106	0xbfc6b2d8	-1.5523329
107	0xbf9216b5	-1.141318
108	0xbfd8270a	-1.6886914
109	0x3fa7bc0a	1.310426
110	0x3f9a6451	1.2061864
111	0x3fa562f7	1.2920827
112	0xbef7183d	-0.4826068
113	0xbdb8ddf3	-0.090267085
114	0xbe959d44	-0.29221547
115	0x3fcca0ae	1.5986536
116	0xc0282553	-2.627278
117	0x3f4b19da	0.7933632
118	0xbdd88956	-0.1057307
119	0x3f7e740e	0.99395835
120	0x3f3dc800	0.741333
121	0x3ea912c0	0.33022118
122	0x3e5bcfc4	0.21465975
123	0x3e4341a4	0.19068009
124	0xbd0c3493	-0.034229826
125	0x3f909064	1.1294065
126	0xbe606d35	-0.21916659
127	0xbd14e69b	-0.036352735
128	0xbe3ba109	-0.18323149
129	0x3fb333df	1.4000205
130	0xbe5853d1	-0.21125723
131	0x3f5e0da5	0.8673957
132	0x3e39f25e	0.18158862
133	0x3e065ab9	0.13120545
134	0xbed2f243	-0.41200456
135	0xbf913ce2	-1.1346705
136	0xbef72d99	-0.48276976
137	0xbe71dfcb	-0.23620526
138	0x3e091db8	0.13390243
139	0x3fcb95fe	1.5905149
140	0xbdf8e073	-0.12152185
141	0x3dc935bb	0.098247014
142	0x3f90de04	1.1317754
143	0xbf9260e4	-1.1435819
144	0xbe9c2068	-0.30493474
145	0xbf229e05	-0.6352237
146	0xbf3910c8	-0.7229123
147	0x3ee238bf	0.4418392
148	0x3eed095e	0.4629621
149	0xbe30beb7	-0.17260252
150	0x3ee0a935	0.43879095
151	0xbf64b7b9	-0.8934284
152	0xbfb43bee	-1.4080789
153	0xbe88b309	-0.26699093
154	0x3f2d6112	0.6772624
155	0xbeaea483	-0.34109887
156	0xbca99c92	-0.020704541
157	0xbe84150a	-0.25797302
158	0xbf45c409	-0.7725225
159	0xbeb2fe1e	-0.349595
160	0x3feab185	1.8335425
161	0x3ff011cb	1.875543
162	0x3f20c0fc	0.6279447
163	0x3ddf203c	0.1089482
164	0x3f6c3ae4	0.9227736
165	0xbf84205a	-1.0322373
166	0xbfb8ae16	-1.4428127
167	0xbfeafe0f	-1.8358783
168	0xbf8dd5e4	-1.1080899
169	0xbfb8e68f	-1.4445361
170	0x3dbbcc8d	0.09169874
171	0xbed039e1	-0.40669158
172	0xbf10952a	-0.56477606
173	0xbf2f6535	-0.68513805
174	0x3fe4b2ee	1.7867105
175	0x3fda406f	1.7050914
176	0x3f782497	0.9693083
177	0x3e378733	0.17922668
178	0xbf53d8c5	-0.8275264
179	0xbea0bc75	-0.3139378
180	0x3ee4209c	0.4455613
181	0xbf0d8083	-0.5527422
182	0xbf3ab03c	-0.7292516
183	0xbf25638b	-0.64605016
184	0x3f95375a	1.1657517
185	0x3e02b71b	0.12765162
186	0xbe57eb18	-0.21085775
187	0xbf067cb0	-0.5253401
188	0x3f2364bb	0.6382558
189	0xbef2d50f	-0.47428176
190	0x3f8f184c	1.117929
191	0xbe86c554	-0.26322424
192	0xbeb1eac0	-0.34749413
193	0x3fc3a9e4	1.5286222
194	0x3f24bb5c	0.6434839
195	0xbddbb312	-0.10727514
196	0x3fc76163	1.5576595
197	0xbf529728	-0.82261896
198	0x3d84df40	0.06487894
199	0x3ef8e3f0	0.48611403
200	0xbdaa67fa	-0.08320613
201	0xbdfe5133	-0.12417831
202	0xbf6dc6af	-0.9288129
203	0x3f29cef9	0.6633144
204	0x3e0eeff5	0.13958724
205	0x3df781af	0.12085282
206	0x3f39de19	0.7260452
207	0x3f468639	0.7754856
208	0xbebfdbc4	-0.37472355
209	0xbe92c720	-0.28667545
210	0x3f7650ff	0.9621734
211	0x3f465916	0.77479684
212	0xbf38716c	-0.7204807
213	0x3ea48bf9	0.3213804
214	0x3d83fa1f	0.06444191
215	0x3f58ad86	0.84639776
216	0xbeb0eea8	-0.3455708
217	0xbe285900	-0.16440201
218	0x3e15d492	0.1463187
219	0x3f870673	1.0548843
220	0xbf2ffcf7	-0.6874537
221	0x3e1cd76b	0.1531655
222	0xbea35ccc	-0.31906736
223	0x3f1cc83e	0.61243045
224	0xbedc15d4	-0.42985404
225	0x3e75d1aa	0.24005762
226	0x3ed7fa50	0.4218316
227	0xbf1b7781	-0.60729223
228	0xbf382744	-0.71934915
229	0x3c0577cb	0.008146237
230	0x3d02d9de	0.031946056
231	0x3b399bc7	0.002832161
232	0xbdc97362	-0.09836461
233	0xbd535a2f	-0.051599678
234	0xbe0ea388	-0.1392957
235	0x3e90b840	0.28265572
236	0xbe1b1488	-0.15144551
237	0xbec62592	-0.3870054
238	0xbe03b91c	-0.12863582
239	0xbee4ebde	-0.44711202
240	0x3ed28fac	0.41125238
241	0x3fbc8dcc	1.4730773
242	0xbf2a062d	-0.66415673
243	0xbe68149b	-0.2266411
244	0x3f2a06d3	0.6641666
245	0xbf262300	-0.64897156
246	0x3f35fdd3	0.7109043
247	0x3ea04557	0.31302902
248	0x3e10e102	0.14148334
249	0x3f912f28	1.1342516
250	0x3e104f6d	0.14092799
251	0xbf95cb73	-1.1702713
252	0x3eb28bac	0.34872186
253	0x3f826f88	1.0190287
254	0xbea9744d	-0.33096543
255	0x3e32dbc6	0.1746665

lstm.bias_ih_l0 f4 [32]
0	0x3d671a6d	0.056421686
1	0xbd8e862a	-0.069591835
2	0xbef1c923	-0.47223768
3	0xbea6d79a	-0.32586366
4	0x3dbed7b3	0.09318485
5	0xbf2bda57	-0.67130035
6	0x3f835f97	1.0263547
7	0xbf0b816a	-0.54494345
8	0xbd022d65	-0.031781573
9	0x3e421fad	0.18957396
10	0x3d7eb505	0.062184352
11	0x3f08372d	0.5320919
12	0x3edde379	0.4333761
13	0x3e9d560c	0.3072971
14	0xbf6348e2	-0.88783085
15	0xbddb5968	-0.10710412
16	0xbce7c08b	-0.028290054
17	0xbdbfbae9	-0.09361822
18	0xbd6f859f	-0.05847704
19	0xbe4ed74d	-0.20199318
20	0xbdeb25fc	-0.11481854
21	0x3e6fb1a2	0.23407605
22	0x3bcc15ab	0.006228169
23	0xbe8da96b	-0.27668318
24	0xbdfea570	-0.124338984
25	0xbe81001f	-0.25195405
26	0xbf4d007e	-0.80078876
27	0x3dc0f04e	0.094208345
28	0xbd4ee154	-0.05050786
29	0xbdd0abb7	-0.10189002
30	0x3f253def	0.6454763
31	0x3e0ad7aa	0.13558832

lstm.bias_hh_l0 f4 [32]
0	0xbe382369	-0.17982258
1	0xbebe028b	-0.37111315
2	0xbe8e8219	-0.27833632
3	0xbeb0a6ae	-0.34502167
4	0xbe89877b	-0.26861176
5	0xbf281089	-0.6565023
6	0x3f8c16ad	1.094442
7	0xbe80b647	-0.25139067
8	0xbccc0938	-0.02490674
9	0xbeb152f9	-0.34633616
10	0x3c1efc85	0.00970376
11	0xbbec47cd	-0.0072107078
12	0x3dfea64d	0.12434063
13	0x3e8ab0ba	0.27087957
14	0xbf104ace	-0.5636414
15	0xbe6c13ae	-0.23054382
16	0x39891e5e	0.00026153302
17	0x3e8b49b0	0.27204657
18	0x3e61dd56	0.22057089
19	0x3e6299ea	0.22129026
20	0x3e5b09ec	0.21390504
21	0xbdac07ac	-0.08399901
22	0xbe888dae	-0.26670593
23	0xbdeb0d3a	-0.11477132
24	0x3ca8a555	0.020586649
25	0xbea033e3	-0.31289586
26	0xbf50c44c	-0.81549525
27	0x3d7fb76d	0.062430788
28	0x3dfd5730	0.12370145
29	0xbf10ab8b	-0.56511754
30	0x3f740dcd	0.9533356
31	0xbd09caba	-0.0336406

lstm.weight_ih_l0_reverse f4 [32, 10]
0	0xbd0aff08	-0.033934623
1	0xbecbacd3	-0.39780292
2	0xbf6303ba	-0.8867756
3	0x3eaf21cd	0.34205475
4	0xbf45db9c	-0.7728822
5	0xbb92fdf7	-0.0044858414
6	0x3ea724b6	0.32645196
7	0xbf66368d	-0.8992699
8	0x3f252233	0.6450531
9	0xbf1c9a00	-0.61172485
10	0x3db1dc87	0.086846404
11	0x3e4bf48d	0.19917507
12	0x3db66996	0.08906858
13	0x3e7fe17d	0.2498836
14	0x3e464ecc	0.19365996
15	0xbd835d04	-0.06414226
16	0x3bbc711f	0.00575079
17	0x3ec04edb	0.37560162
18	0x3e91cbc6	0.2847578
19	0x3e54da97	0.2078651
20	0x3fe14c6a	1.7601445
21	0x3faed918	1.3660002
22	0xbfe2f4eb	-1.7730993
23	0xbe0f3b3a	-0.13987437
24	0xbf088263	-0.53323954
25	0x3f1cf3e9	0.6130968
26	0xbf1a7155	-0.6032918
27	0xbddb8df8	-0.10720438
28	0x3f8db211	1.1069967
29	0x3e8221fc	0.25416553
30	0xc008f89c	-2.140174
31	0xbf04774e	-0.51744545
32	0xbeb94e3c	-0.361925
33	0x3eb0bef9	0.345207
34	0x3d19a449	0.03751019
35	0xbe14e344	-0.1453982
36	0x3d8bbbcb	0.06822928
37	0xbdabd9f6	-0.08391182
38	0xbe5d7f6a	-0.21630636
39	0xbdda6e18	-0.1066553
40	0x3e649795	0.22323449
41	0x3ea8736c	0.3290056
42	0xbe4e00bf	-0.20117472
43	0xbde8f9be	-0.113757595
44	0x3f497b36	0.7870363
45	0x3e2bd6f2	0.16781214
46	0x3e3aa858	0.1822828
47	0x3e1ef6b8	0.15523803
48	0x3fd76514	1.6827722
49	0x3dc251a0	0.09488225
50	0x4034c186	2.8243117
51	0x3ebb4d8c	0.365826
52	0xbccfec37	-0.02538119
53	0x3dd0b0b8	0.101899564
54	0x3eb93aa6	0.36177558
55	0x3dd5de3a	0.10442777
56	0xbf3b6075	-0.73194057
57	0x3e1e9a2e	0.15488502
58	0x3f1caa4f	0.6119737
59	0xbada6245	-0.0016661367
60	0xc0598897	-3.3989618
61	0xbf841e1c	-1.0321689
62	0xbf1995f0	-0.5999441
63	0xbe9b37e7	-0.30316088
64	0x3e1a235f	0.15052556
65	0xbd85c78f	-0.065322034
66	0xbe034af0	-0.12821555
67	0x3e94443b	0.28958306
68	0x3e7a9a78	0.24472988
69	0x3dff1cee	0.1245669
70	0x3f9e6f63	1.2377743
71	0xbfa78831	-1.3088437
72	0x3eb96f71	0.36217836
73	0xbca1edcb	-0.019766709
74	0xbe761acb	-0.24033658
75	0xbf599c1e	-0.8500384
76	0xbee493ee	-0.4464411
77	0xbe952657	-0.29130813
78	0xbf8a4c63	-1.0804561
79	0xbdac647d	-0.08417604
80	0xbdc8c8f7	-0.09803956
81	0xbebad075	-0.36487165
82	0x3f61ada5	0.88155586
83	0x3f2922d8	0.6606879
84	0x3ee047e6	0.43804854
85	0x3e8869ae	0.26643127
86	0x3f20e303	0.6284639
87	0x3f02e764	0.51134324
88	0x4009900f	2.1494176
89	0x3eeb0965	0.45905605
90	0x3e4cdfc5	0.20007236
91	0xbe0bf4e7	-0.13667642
92	0x3f63cb23	0.8898184
93	0xbf0faf15	-0.5612653
94	0xbe8fb439	-0.28067186
95	0x3e879d6e	0.26487297
96	0xbf0852c3	-0.53251284
97	0x3e7f7d41	0.24950124
98	0x3faa7575	1.3317095
99	0x3efb35d2	0.490645
100	0x3fc5d496	1.5455501
101	0x3fd1a517	1.6378506
102	0xc001d0b3	-2.028363
103	0x3e6d2fa5	0.23162706
104	0x3e794e1f	0.24346207
105	0x3f0b1c5c	0.5434015
106	0xbdece5af	-0.11567246
107	0x3ec8a594	0.39188826
108	0x3f3154cf	0.6927003
109	0x3db3e46f	0.087838046
110	0xbfcacd7b	-1.5843958
111	0x3f34fa27	0.706942
112	0x3f36d05d	0.7141169
113	0x3f01a999	0.5064941
114	0x3da1944e	0.07889615
115	0x3f605d90	0.87642765
116	0x3f5cdde5	0.86276084
117	0x3f18cbd4	0.5968602
118	0xbf9ee329	-1.2413074
119	0x3e6ef0cf	0.23334049
120	0xbe65a4b6	-0.22426113
121	0xbf1174d5	-0.56818897
122	0x3e1fcfa3	0.15606551
123	0x3f134413	0.5752575
124	0x3f389258	0.720983
125	0x3f479e92	0.77976334
126	0xbec11a15	-0.37715212
127	0x3f669bc0	0.90081406
128	0x402cca99	2.6998656
129	0x3e99b473	0.30020484
130	0x3edd8b31	0.43270257
131	0xbe5a7b59	-0.21336116
132	0x3fc59305	1.5435492
133	0xbf712261	-0.94193083
134	0x3e556f0b	0.20843141
135	0x3d487cb2	0.048947044
136	0xbd8f59c3	-0.069995426
137	0x3e17cc35	0.14823993
138	0x3f9f030c	1.2422805
139	0x3ebc63f4	0.36795008
140	0x3f1d4268	0.6142945
141	0xbf106c84	-0.5641558
142	0x3dd3576c	0.10319409
143	0x402f0e96	2.7352653
144	0xbf845c43	-1.0340656
145	0x3fcb794d	1.5896393
146	0x3f19345e	0.5984553
147	0x3dc964f8	0.098337114
148	0x3d06cd6f	0.03291076
149	0x401070a5	2.2568753
150	0x40068671	2.1019557
151	0xbebd87f8	-0.37017798
152	0x3f77daca	0.9681822
153	0xbf09626e	-0.53665817
154	0xbf0f56fd	-0.5599211
155	0x3ecc3d1e	0.3989038
156	0x3e57ad57	0.21062218
157	0x3f5e49f6	0.86831605
158	0xbe86cd3a	-0.2632845
159	0x3f5ca9b6	0.8619646
160	0xbdf14c86	-0.11782174
161	0xbea36b9d	-0.3191804
162	0x3f030995	0.51186496
163	0x3e4f560b	0.20247667
164	0x3f617835	0.88074046
165	0xbdea32e9	-0.114354916
166	0xbef11a82	-0.47090536
167	0xbe1660d9	-0.14685382
168	0x3e63c941	0.22244741
169	0x3d739e5e	0.059477203
170	0x402be3fd	2.6857903
171	0xbddb670b	-0.10713013
172	0x3e3dae12	0.18523434
173	0x3e858a70	0.26082182
174	0xbd4a029e	-0.049318902
175	0xbdd3c5e8	-0.10340482
176	0xbdbf2b26	-0.09334402
177	0xbd253e28	-0.04034248
178	0x3e2327c2	0.15933135
179	0xbd7a5f53	-0.061126065
180	0xbfaeb156	-1.3647869
181	0x3f89400e	1.0722673
182	0xbeaa2ce6	-0.3323738
183	0x3f3a933c	0.7288091
184	0xbd76c507	-0.060246494
185	0xbeb1b7c6	-0.3471052
186	0x3f421f2b	0.7582881
187	0xbd38dfeb	-0.04513542
188	0x3fec5735	1.8464113
189	0xbf17ab21	-0.59245497
190	0xbfc7a8b5	-1.559836
191	0x3f12a7de	0.57287395
192	0xbe8eda30	-0.2790084
193	0x3ef16457	0.47146866
194	0xbb5e2a97	-0.0033899897
195	0x3e9558a9	0.29169205
196	0x3f6073a4	0.87676454
197	0x3d418056	0.04724153
198	0xbf90fe8a	-1.1327679
199	0xbe524582	-0.20534328
200	0x4042f015	3.0459034
201	0x3da6bc7e	0.08141421
202	0xbd313376	-0.043261968
203	0x3beb2802	0.0071764
204	0x3d78b288	0.060717136
205	0x3dd6639c	0.10468218
206	0x3e0bfc8b	0.13670556
207	0x3e6d869b	0.23195879
208	0xbe8ca8b7	-0.2747247
209	0x3d542d8c	0.05180125
210	0x3ff9474c	1.9474883
211	0xbea2416c	-0.31690538
212	0x3eeea163	0.46607503
213	0x3c902523	0.017595833
214	0x3eb23ed8	0.3481357
215	0xbcf63f0b	-0.030059358
216	0xbea11b8c	-0.3146633
217	0x3dae65d7	0.08515518
218	0x3fb5acfd	1.4193417
219	0x3d1b65ce	0.037938885
220	0xbff8810c	-1.9414382
221	0x3ec23b09	0.37935665
222	0xbee6e74c	-0.4509834
223	0x3f577689	0.84165245
224	0xbe952a9e	-0.29134077
225	0x3efd4c1f	0.49472138
226	0xbbd01b78	-0.006350931
227	0xbc580c8e	-0.013186587
228	0xbf753044	-0.9577677
229	0x3e9a19a3	0.30097684
230	0x3f171535	0.59016734
231	0x3c6f7abd	0.014616665
232	0x3c30af57	0.010783992
233	0x3f87e737	1.0617436
234	0x3e157b32	0.14597777
235	0x3eeec7cb	0.46636805
236	0xbf090d95	-0.5353635
237	0x3dc2a15c	0.09503433
238	0xbe04ef41	-0.12981893
239	0xbea21150	-0.31653833
240	0xbf64ea64	-0.8942015
241	0xbe3e2c60	-0.18571615
242	0xbd1cfbe4	-0.03832616
243	0xbd8350c5	-0.0641189
244	0x3f875f47	1.0575951
245	0xbd2d895b	-0.04236732
246	0xbce77392	-0.02825335
247	0x3e3bfbbb	0.18357746
248	0xbc99bc89	-0.018766658
249	0x3dcb0d3f	0.09914636
250	0xbde6ce25	-0.11269788
251	0x3f33f056	0.702886
252	0xbda7f061	-0.082001455
253	0x3fcde8ef	1.6086711
254	0x3d874beb	0.06606277
255	0x3e38b8b3	0.18039207

lstm.weight_hh_l0_reverse f4 [32, 8]
0	0xbf14ae27	-0.58078235
1	0xbefe1e7f	-0.49632642
2	0xbda14b05	-0.07875637
3	0xbe456fa6	-0.19280872
4	0x3eaa4c8c	0.33261526
5	0xbf3d9feb	-0.7407214
6	0xbe740c98	-0.23832929
7	0x3d708191	0.058717314
8	0xbd4b55de	-0.049642436
9	0x3f953448	1.165658
10	0xbec6a9fc	-0.38801563
11	0x3fb4ffa9	1.4140521
12	0x3d0663db	0.032810073
13	0xbcf9729c	-0.030450158
14	0x3f801f06	1.0009468
15	0x3ef5bc5d	0.47995272
16	0x3f08beeb	0.5341632
17	0x3e046ca7	0.12932073
18	0x3fbb4575	1.4630572
19	0xbf4221c8	-0.75832796
20	0x3f9740ab	1.181661
21	0x3ecd2afb	0.40071854
22	0xbfa73df0	-1.3065777
23	0xbd69b4db	-0.057057243
24	0xbe1f471a	-0.15554467
25	0x3fb369f8	1.4016714
26	0xbf6469c5	-0.8922389
27	0x3f8bfe4d	1.0936981
28	0x3f086cd4	0.5329106
29	0x3e51c191	0.20483996
30	0x3fa92dff	1.3217162
31	0x3fd5113b	1.6645883
32	0xbf428f2f	-0.7599973
33	0x3f400ec5	0.75022537
34	0x3e957f1f	0.29198548
35	0x3f9f36fc	1.2438655
36	0x3d00c03a	0.03143332
37	0xbf722e80	-0.94602203
38	0x3f04f99f	0.5194339
39	0x3ef7e4de	0.484168
40	0x3e91a9c7	0.28449842
41	0x3edded74	0.43345225
42	0xbf952088	-1.1650553
43	0xbe5b30b2	-0.21405295
44	0x3f580e3b	0.84396714
45	0xbf5a8ee7	-0.853743
46	0x3eb87319	0.36025313
47	0xbe819b5d	-0.25313845
48	0x3f3ec204	0.74514794
49	0x3ec57779	0.38567713
50	0xbf90dc1e	-1.1317174
51	0x3f1f35d4	0.6219151
52	0x3ec7e285	0.39040008
53	0x3e9b9095	0.30383745
54	0x3f394bac	0.7238109
55	0x3f53c6a4	0.82724977
56	0x3ed7db52	0.42159516
57	0x3d5aa502	0.05338002
58	0xbfb33f56	-1.4003704
59	0xbe3bd5de	-0.18343303
60	0xbeca4e71	-0.3951297
61	0x3fe85683	1.8151401
62	0xbf16360f	-0.58676237
63	0xbe48113e	-0.19537827
64	0xbfd43a29	-1.6580249
65	0xbf013f40	-0.50487137
66	0xc02b40f6	-2.67584
67	0x3f08f887	0.5350422
68	0xbf1a6adc	-0.60319304
69	0xbff13548	-1.8844385
70	0x3f7293f0	0.94756985
71	0x3d93b6a6	0.07212572
72	0x3f4a4057	0.79004425
73	0x3e0bc128	0.13647902
74	0xbe7295aa	-0.23689905
75	0x3eb918bb	0.3615168
76	0xbf17f5fc	-0.5935972
77	0x3f5220fa	0.8208157
78	0xbec939b7	-0.39301845
79	0x3ec3b2bb	0.38222298
80	0x3f23651c	0.63826156
81	0x3f4c35ea	0.79769766
82	0x3f7d51c1	0.9895287
83	0xbeab2e0d	-0.3343357
84	0x3f7d8483	0.9903032
85	0xbdcbcff9	-0.09951777
86	0xbf6cd53f	-0.9251289
87	0x3f8a95e6	1.0826995
88	0x3e4b6950	0.19864392
89	0xbeaa0887	-0.3320963
90	0xbdd7fd43	-0.10546353
91	0xbd8e67ea	-0.06953414
92	0xbf6c1b24	-0.92228913
93	0x3f25f705	0.64830047
94	0x3ea1c4e6	0.31595534
95	0x3eebc689	0.46049908
96	0x3f349a94	0.7054837
97	0x3eb5360f	0.35392806
98	0x3e8274f0	0.2547984
99	0x3eed218d	0.4631466
100	0xbe552bf7	-0.20817553
101	0x3ef4288e	0.4768719
102	0x3d0a26bb	0.033728343
103	0x3ec32940	0.3811741
104	0xbf6f7762	-0.9354154
105	0x3d8b887b	0.06813141
106	0xbfca15a7	-1.5787858
107	0xbf76aeeb	-0.96360654
108	0x3e784ef0	0.24248862
109	0xbfa65220	-1.2993813
110	0x3f05e357	0.5230002
111	0x3e3cc8db	0.18435995
112	0xbf710219	-0.94143826
113	0x3f77dc3a	0.96820414
114	0xbf45ea31	-0.7731047
115	0x3ed8accb	0.4231933
116	0x3e096097	0.13415752
117	0xbfd76431	-1.6827451
118	0x3e88c4b1	0.26712564
119	0x3f45c160	0.7724819
120	0x3ed440be	0.41455644
121	0x3e60bf6c	0.21948022
122	0xbf1de74d	-0.6168106
123	0xbe2321ab	-0.15930812
124	0xbe9b2a18	-0.30305552
125	0x3f89c7b3	1.0764068
126	0xbf4f718b	-0.8103263
127	0xbd9c04b4	-0.076180845
128	0x3f6f9dae	0.93599975
129	0xbf1fa3c6	-0.62359273
130	0x3dfa1e8a	0.12212856
131	0xbf15413f	-0.5830268
132	0xbf28e202	-0.6596986
133	0x3ffc9a33	1.9734558
134	0xbf2567af	-0.64611334
135	0xbddeb5ca	-0.10874517
136	0x3ef88e9f	0.4854631
137	0xbe61608b	-0.22009484
138	0xbee12180	-0.4397087
139	0x3ed466d1	0.41484693
140	0xbe99b8ec	-0.30023897
141	0x3e851c89	0.25998333
142	0x3ed5be7b	0.41746888
143	0x3f5ddb37	0.8666262
144	0x3dd518cc	0.1040512
145	0xbc9fa5dd	-0.01948827
146	0x3fa16482	1.2608798
147	0x3e513372	0.20429781
148	0x3d8fa49c	0.070138186
149	0x3e6a7150	0.22894788
150	0x3e8e4b4b	0.2779182
151	0xbeba260a	-0.36357147
152	0x3f42d04a	0.76099074
153	0x3df55a3c	0.119801015
154	0x3f939c44	1.1532063
155	0x3f7ef48c	0.995919
156	0xbe96e87a	-0.2947424
157	0x3eb24569	0.3481858
158	0x3ee01b89	0.43771008
159	0x3f1e0ab7	0.617351
160	0x3f281ed1	0.6567202
161	0x3e2a3115	0.16620286
162	0xbd6cd957	-0.05782446
163	0x3ec1b36a	0.37832195
164	0xbf1c4b65	-0.6105254
165	0x3ef473de	0.4774465
166	0xbea5e2d4	-0.3239962
167	0x3ec2f8eb	0.38080534
168	0x3f41ded0	0.7573061
169	0xbf78550c	-0.9700477
170	0x3e8b2557	0.27176926
171	0xbf86a956	-1.0520427
172	0xbf436a33	-0.7633392
173	0x3f96e575	1.1788775
174	0xbfb191cd	-1.387262
175	0xbf5c2294	-0.8599026
176	0xbf0ccf59	-0.5500389
177	0x3e303062	0.17205957
178	0x3f95540e	1.1666276
179	0x3ea91b6d	0.33028737
180	0x3f0d1ac7	0.55118984
181	0xbed6f9a9	-0.4198735
182	0x3e608fd6	0.21929869
183	0xbeaec1b7	-0.34132168
184	0x3dea90fe	0.11453436
185	0x3e8fbaf0	0.2807231
186	0x3f22db75	0.63616115
187	0x3f934716	1.1506069
188	0x3efef666	0.49797362
189	0x3f1132ee	0.5671834
190	0x3f4babb9	0.795589
191	0x3ea4999f	0.32148454
192	0xbf36fa01	-0.71475226
193	0x3fb1c6f1	1.3888837
194	0xbfe90373	-1.8204178
195	0x3d01979d	0.03163873
196	0x3feb7519	1.839511
197	0xbf104b87	-0.56365246
198	0x3f321bbe	0.6957358
199	0x3ea11ea1	0.3146868
200	0xbd899052	-0.0671698
201	0xbe0c85d9	-0.13722934
202	0x3ef01b59	0.46895865
203	0x3f230f17	0.636949
204	0x3e87203b	0.26391777
205	0xbed6b68f	-0.41936156
206	0x3f21a446	0.63141286
207	0x3d841357	0.06449001
208	0x3f853e4b	1.0409635
209	0xbccbb401	-0.024866106
210	0x3eabbe9d	0.33543864
211	0x3d0205ec	0.03174393
212	0x3f43f67f	0.76548
213	0x3f438b08	0.7638402
214	0xbf70f862	-0.94129
215	0x3ea45e7b	0.32103333
216	0x3e847e53	0.25877628
217	0xbdc3cc13	-0.095604084
218	0xbca2ebd4	-0.019887842
219	0x3f82d841	1.0222245
220	0xbf111d3b	-0.5668523
221	0x3ea2cb12	0.31795555
222	0x3e31f950	0.17380261
223	0x3f6600ea	0.89845145
224	0xbf9afcf7	-1.2108449
225	0x3cc6e244	0.024277814
226	0x3e23211a	0.15930596
227	0x3fb85b0b	1.4402784
228	0xbe27e13f	-0.16394518
229	0xbfad0bba	-1.3519204
230	0x3fb73056	1.4311626
231	0x3e6ab098	0.22918928
232	0xbfa4aed2	-1.2865851
233	0x3fa3b8ca	1.2790768
234	0xc00c7ad4	-2.1949968
235	0x3e969226	0.29408377
236	0x3f92c6ee	1.1466959
237	0xbfabd3f5	-1.3424059
238	0x3f4da436	0.8032869
239	0x3f8c47ae	1.0959375
240	0x3f8a96d6	1.0827281
241	0x3e20eff9	0.15716542
242	0xbf7cf759	-0.9881492
243	0x3c717893	0.01473822
244	0x3f694cca	0.91132796
245	0x3f26ed7e	0.65206134
246	0xbe4165cd	-0.1888649
247	0x3f421d5e	0.7582606
248	0xbe957fed	-0.29199162
249	0x3f31b425	0.69415504
250	0x3f834a35	1.0257021
251	0x3f1dcadd	0.6163767
252	0x3e0196cf	0.12655185
253	0xbea01b48	-0.31270814
254	0x3f61ed8c	0.8825309
255	0x3ed9140b	0.42398104

lstm.bias_ih_l0_reverse f4 [32]
0	0xbf30e617	-0.6910109
1	0x3f2828bb	0.6568715
2	0x3cc1495c	0.02359455
3	0xbeba4121	-0.36377814
4	0x3ed15a40	0.40889168
5	0xbee9adf4	-0.45640528
6	0xbe535116	-0.206364
7	0xbeada060	-0.3391142
8	0x3efb6aee	0.49105018
9	0x3eeb62cc	0.45973814
10	0x3e63614c	0.22205085
11	0x3f448ef4	0.7678063
12	0x3e8dadba	0.27671605
13	0x3d83e650	0.06440413
14	0x3e8ee3f8	0.279083
15	0x3eea25c9	0.45731953
16	0x3e6e7788	0.23287785
17	0xbe548708	-0.20754635
18	0x3e6faab4	0.23404962
19	0x3f1d9916	0.61561716
20	0xbec3747d	-0.3817481
21	0x3eaefb7f	0.3417625
22	0x3eb6a073	0.35669288
23	0xbf15142e	-0.58233917
24	0x3ea513f4	0.32241786
25	0x3f2c26bf	0.6724662
26	0xbe3719e1	-0.17880966
27	0xbe95171e	-0.291192
28	0x3f71b5ff	0.9441833
29	0x3dc56c84	0.09639838
30	0xbe52e455	-0.20594914
31	0xbf252f99	-0.64525753

lstm.bias_hh_l0_reverse f4 [32]
0	0xbf477c4f	-0.77924055
1	0x3ee0111f	0.43763062
2	0xbebc3d99	-0.36765745
3	0xbd6b3d42	-0.057431467
4	0x3f33a199	0.70168453
5	0xbf12e269	-0.57376724
6	0xbed7b31b	-0.42128834
7	0xbebbafca	-0.36657554
8	0x3f5c7406	0.8611454
9	0x3eb8d966	0.36103362
10	0x3e1328c0	0.14371014
11	0x3ec0f733	0.37688598
12	0x3ef03287	0.4691355
13	0x3e9719f1	0.2951198
14	0x3e07c58e	0.13258955
15	0x3eaed815	0.34149233
16	0x3e0dc9b6	0.13846478
17	0xbe8a6139	-0.270273
18	0x3e7b0093	0.24511938
19	0x3ddb8a94	0.10719791
20	0xbe1fd11a	-0.1560711
21	0x3e4fa108	0.20276272
22	0x3ee62fb9	0.44958284
23	0x3d514aad	0.051096607
24	0x3ec1a38a	0.37820083
25	0x3f49b953	0.7879841
26	0xbda50489	-0.08057506
27	0x3ebd140b	0.36929354
28	0x3f6b42a3	0.91898555
29	0x3d14dcb8	0.036343306
30	0x3dd62cb5	0.10457746
31	0xbd91c7d8	-0.07118195

lstm.weight_ih_l1 f4 [32, 16]
0	0x3f83473a	1.0256112
1	0x3efc2d69	0.49253395
2	0xbe99d502	-0.30045325
3	0xbfdf2616	-1.7433498
4	0x3dd283bb	0.10279032
5	0x3e2b75de	0.16744182
6	0xbe420fb1	-0.18951298
7	0x3eb07cf8	0.34470344
8	0xbdb61b79	-0.08891959
9	0x3f277dba	0.6542622
10	0xbf3b0360	-0.73052025
11	0x3e2ab5fb	0.16670983
12	0xbe82e1b3	-0.2556282
13	0xbf5ae4d4	-0.85505414
14	0x3f2d9451	0.6780444
15	0xbd1140d0	-0.0354622
16	0xbf7a7494	-0.97834134
17	0x3f87ecbf	1.0619124
18	0x3f061a3f	0.523838
19	0xbf20b450	-0.62775135
20	0x3e9c8e3d	0.3057727
21	0x3f855a62	1.0418208
22	0x3c87500c	0.016517662
23	0x3f987910	1.1911945
24	0x3e612f66	0.21990737
25	0x3e9bbfa6	0.30419654
26	0x3efb5ab3	0.49092636
27	0xbf8047ce	-1.0021913
28	0x3eb25aa5	0.3483478
29	0xbea6d896	-0.32587117
30	0xbf3e9e1c	-0.74460006
31	0x3b4d87c6	0.0031361445
32	0xbf927b9f	-1.1443976
33	0x3f9946a6	1.1974685
34	0x3fa7380a	1.3063977
35	0xbf3dad60	-0.74092674
36	0xbe9a4b53	-0.30135593
37	0x3f85dcb3	1.0457977
38	0xbf54039e	-0.8281802
39	0xbc09e1b1	-0.008415625
40	0xc01c5bae	-2.4430957
41	0x3dcb77b8	0.09934944
42	0xbf0dac65	-0.5534118
43	0x3ed9b42b	0.4252027
44	0xbe6a0c2b	-0.22856204
45	0xbf4414bf	-0.76594156
46	0x3ee0c10f	0.43897292
47	0xbeec4833	-0.46148834
48	0xbec6a670	-0.38798857
49	0xbf304d54	-0.68867993
50	0x3fdd676b	1.7297186
51	0x3ebac1fc	0.36476123
52	0x3fb47a3c	1.4099803
53	0x3ea78d73	0.32725105
54	0x3f4d561d	0.80209523
55	0x3ee92f59	0.45543936
56	0x3ed9b0d7	0.4251773
57	0x3f5b9888	0.8577962
58	0xbda0f3ba	-0.07858987
59	0xbf72a3f4	-0.9478142
60	0x3f75bdc7	0.959927
61	0x3e4faefb	0.20281594
62	0xbdf4769f	-0.11936688
63	0x3f257ba6	0.646418
64	0x3eef0112	0.46680504
65	0x3f6bc79d	0.9210146
66	0x3c95b477	0.018274529
67	0xbf08a776	-0.53380525
68	0x3fff2d9d	1.9935795
69	0x3f28c142	0.6591989
70	0xbf2814cc	-0.65656734
71	0xbec668bc	-0.3875178
72	0xbf1564eb	-0.58357114
73	0xbdce9289	-0.10086543
74	0x3f519bde	0.8187846
75	0x3f2bda70	0.67130184
76	0xbec6c330	-0.3882079
77	0xbf2648ae	-0.6495465
78	0x3dee88e6	0.11647205
79	0x3f818737	1.0119389
80	0x3f2089f7	0.6271052
81	0xbd544665	-0.051824946
82	0xbf265260	-0.64969444
83	0xbf43322b	-0.76248425
84	0x3d40b36d	0.047046114
85	0x3f89c020	1.0761757
86	0x3fe4818e	1.7852037
87	0x3d880798	0.066420734
88	0xbe1279e3	-0.14304309
89	0xbbcf826a	-0.0063326852
90	0x3ebdc1a6	0.37061805
91	0xbe0fdfe0	-0.14050245
92	0x3f17e3a0	0.59331703
93	0xbd945214	-0.07242218
94	0xbe75b923	-0.23996405
95	0x3e88bf13	0.26708278
96	0x3e554545	0.20827205
97	0xbf07d8cd	-0.53065187
98	0xbe3718f2	-0.1788061
99	0xbefe087f	-0.49615857
100	0xbd0ba4bf	-0.03409266
101	0x3f886921	1.0657083
102	0xbde24a7b	-0.11049362
103	0xbf4df018	-0.8044448
104	0x3e5f1781	0.2178631
105	0xbe551d1f	-0.2081189
106	0x3e54fcd8	0.20799577
107	0xbf4cdfb7	-0.8002886
108	0xbf374ab9	-0.7159839
109	0x3e95edf0	0.29283094
110	0xbf204692	-0.6260768
111	0xbf382cf5	-0.719436
112	0x3ebd981b	0.3703011
113	0xbee00abe	-0.43758196
114	0x3dacfd7c	0.08446786
115	0x3fa6f901	1.304474
116	0xbf0d3a42	-0.5516702
117	0xbf3d2ddc	-0.738981
118	0x3f434bb7	0.76287407
119	0x3ebe743a	0.3719805
120	0xbf923407	-1.1422127
121	0x3f09c064	0.5380919
122	0xbf301f33	-0.68797606
123	0xbecff0d4	-0.40613425
124	0xbce25679	-0.027629124
125	0x3d50b16f	0.050950464
126	0xbf196de5	-0.5993331
127	0xbdf821d2	-0.12115826
128	0x3da59947	0.08085876
129	0x3f0362e5	0.51322776
130	0xbf94e36e	-1.1631906
131	0xbfeb9223	-1.8403972
132	0xbe88d4fc	-0.26724994
133	0x3f1f179b	0.62145394
134	0xc0021962	-2.0327992
135	0xbfca99e3	-1.5828212
136	0xbf068aac	-0.52555346
137	0xbf03bd80	-0.5146103
138	0xbfcc6587	-1.5968484
139	0x3f4a9edf	0.7914867
140	0xbf1c7d27	-0.6112847
141	0xbf3ff309	-0.7498022
142	0x3e9b1237	0.30287334
143	0x3eedca2f	0.46443316
144	0xbfa1f75a	-1.2653611
145	0xbf00af51	-0.5026751
146	0x3ebfa2eb	0.37428984
147	0xbe1dc908	-0.15408719
148	0xbdca13b9	-0.09867043
149	0x3f1abdfa	0.6044613
150	0x3f70bc20	0.94037056
151	0x3fc008ca	1.5002682
152	0xbf49aa4a	-0.78775465
153	0x3efd43eb	0.4946588
154	0x3efcf952	0.49408966
155	0xbeb31755	-0.34978738
156	0x3ec72247	0.3889334
157	0xbf8efa29	-1.1170093
158	0xbedab923	-0.42719373
159	0xbf186e42	-0.5954324
160	0xbf9340e1	-1.1504174
161	0xbf7673d4	-0.9627049
162	0x3fb6687d	1.4250637
163	0x3f8adeb9	1.084922
164	0xbe8719a0	-0.26386738
165	0xbdb363b4	-0.08759251
166	0x3f3488d8	0.70521307
167	0x3f1371a2	0.57595265
168	0x3e8eaaff	0.27864835
169	0x3f04690f	0.51722807
170	0xbf130669	-0.57431656
171	0xbf900e79	-1.1254417
172	0x3edd9a1b	0.43281636
173	0xbcdaa767	-0.026691152
174	0xbc99882f	-0.018741695
175	0xbeb323a0	-0.34988117
176	0xbf80e9d6	-1.0071361
177	0x3fb295c3	1.3951954
178	0x3f5904f3	0.84773177
179	0x3f1d9170	0.61550045
180	0x3dc72fbe	0.09725903
181	0x3e774771	0.24148346
182	0xbf52ce30	-0.8234587
183	0xbfc5f04f	-1.5463961
184	0xbf6000fc	-0.875015
185	0x3e974651	0.29545835
186	0x3edb5f78	0.42846274
187	0x3df0dd2d	0.11760936
188	0x3e5b0315	0.21387894
189	0xbf7c0c34	-0.9845612
190	0x3f410f54	0.75414014
191	0xbf4e827b	-0.8066785
192	0xbed9e07a	-0.42554075
193	0x3f141f18	0.57859945
194	0x3e483414	0.19551116
195	0x3f153dc6	0.58297384
196	0xbf9257a2	-1.1432993
197	0x3f5379d5	0.82607776
198	0xbe862b44	-0.26204884
199	0xbeb261f8	-0.3484037
200	0xbf88e259	-1.0694076
201	0x3d7dc314	0.06195362
202	0x3f00a559	0.502523
203	0x3f60d2bb	0.8782155
204	0xbf9522f5	-1.1651293
205	0xc00e234b	-2.220904
206	0x3fb0ccf2	1.3812544
207	0x3f33b609	0.7019964
208	0x3d65c0f9	0.056092236
209	0x3c8abfef	0.016937224
210	0x3eeb0824	0.45904648
211	0xbf29a840	-0.66272354
212	0x3fb86b5c	1.4407763
213	0x3e7ae23f	0.24500369
214	0xbe8e2f0a	-0.27770263
215	0x3e5552ba	0.20832339
216	0xbf84c2d8	-1.0371962
217	0x3e6bca59	0.23026408
218	0x3f93a82e	1.1535699
219	0x3f06d831	0.5267363
220	0x3f186bfd	0.5953978
221	0xbfc7a023	-1.5595745
222	0x3f77b712	0.9676372
223	0x3f06a601	0.5259705
224	0x3f3e2ef6	0.74290407
225	0xbe41187d	-0.18856998
226	0xbf95a3bf	-1.1690596
227	0x3f2e11e3	0.6799604
228	0x40077dcd	2.1170533
229	0xbeeb068c	-0.45903432
230	0xbf842b53	-1.0325722
231	0xbd231ef7	-0.039824452
232	0xbf2636b5	-0.64927226
233	0x3f2acab5	0.66715556
234	0x3d6a82fd	0.057253826
235	0x3f990092	1.1953299
236	0x3e955c36	0.29171914
237	0xbf86db32	-1.0535643
238	0x3fc26e72	1.5189955
239	0x3f67bbf7	0.90521187
240	0x3eafebe6	0.34359664
241	0xbf00a826	-0.50256574
242	0xbf015eb0	-0.50535107
243	0x3fa0cf36	1.2563236
244	0xc00d434f	-2.2072332
245	0x3f25e1ba	0.64797556
246	0x3f10f398	0.56621695
247	0x3ebaf1d6	0.3651263
248	0xbf98c82d	-1.1936089
249	0xbf207206	-0.62673986
250	0x3d0d3c2b	0.03448121
251	0xbf05db6d	-0.5228794
252	0x3e3c4540	0.18385792
253	0xbedb4f7e	-0.42834085
254	0xbeb99c2f	-0.3625197
255	0xbf8f7bdf	-1.1209677

lstm.weight_hh_l1 f4 [32, 8]
0	0x3e2cc13c	0.16870588
1	0x3fb6caad	1.4280602
2	0xbe82303d	-0.25427428
3	0x3b5e5ba8	0.0033929143
4	0x3cce9cea	0.025221307
5	0xbdc5d520	-0.09659791
6	0xbfd2b61b	-1.6461824
7	0xbe812b9c	-0.25228584
8	0xbfae593c	-1.3620982
9	0xbd872316	-0.06598489
10	0xbdae0808	-0.084976256
11	0xbeed7878	-0.46380973
12	0xbe6365d9	-0.2220682
13	0x3f68eef2	0.909896
14	0x3f9dd843	1.2331623
15	0xbe81e242	-0.25367934
16	0x3f74acae	0.9557599
17	0xbe8c5dc4	-0.27415287
18	0x3aa3a432	0.0012484847
19	0x3f4ad232	0.7922698
20	0xbe565252	-0.2092984
21	0x3f163a03	0.5868227
22	0xbef20749	-0.47271183
23	0xbf3a6cde	-0.7282237
24	0xbde4f733	-0.11179962
25	0xbf70e4c9	-0.940991
26	0x3f97a59e	1.1847417
27	0xbf0404ea	-0.5157
28	0x3f79bbd7	0.97552246
29	0x3ea89f52	0.32934052
30	0x3fb3c171	1.4043409
31	0xbf21f9c0	-0.63271713
32	0xbf2ec884	-0.6827471
33	0xbec03eb6	-0.37547845
34	0x3e54a250	0.20765042
35	0xbf90af84	-1.1303563
36	0xbf2ba9c1	-0.670559
37	0x3fab5199	1.3384277
38	0xbef4c230	-0.47804403
39	0xbf937602	-1.1520388
40	0xbedb04cc	-0.42777097
41	0x3e8376eb	0.25676665
42	0xbf164395	-0.5869687
43	0x3dc8c4ef	0.09803187
44	0xbf681a36	-0.90664995
45	0xbf737612	-0.95102036
46	0xbf3d16ca	-0.738629
47	0x3ba4df0f	0.0050314735
48	0xbf5abdb8	-0.8544574
49	0x3f05946d	0.52179605
50	0xc005a1a2	-2.0879903
51	0x3f6d17b9	0.9261432
52	0xbf0a83a8	-0.5410714
53	0xbf850369	-1.0391666
54	0x3e7d6367	0.2474495
55	0x3f5d9455	0.8655446
56	0x3e531d2a	0.20616594
57	0x3ee8c786	0.45464724
58	0xbea1bb4b	-0.31588206
59	0xbf4cb095	-0.7995694
60	0xbdbd497b	-0.09242531
61	0x3fdb7c28	1.7147264
62	0xbf18139e	-0.59404933
63	0xbe04cd17	-0.1296886
64	0x3ebbd0f2	0.3668285
65	0x3fac5510	1.3463459
66	0x3d8dc6b2	0.06922664
67	0x3f27f2bb	0.6560475
68	0xbeb27040	-0.34851265
69	0xbe3dcdf9	-0.18535604
70	0xc0170f1e	-2.3602977
71	0xbf2f2395	-0.6841367
72	0xc02f518c	-2.7393522
73	0xbe9e0cad	-0.30869046
74	0x3ec38a2c	0.38191354
75	0xbeef3c7d	-0.46725836
76	0xbf59ccc4	-0.8507807
77	0x3f6d9db4	0.9281876
78	0x3fbb44f1	1.4630414
79	0xbf213804	-0.629761
80	0xbf520597	-0.8203978
81	0x3eea1ebb	0.4572657
82	0xbeeb95b0	-0.4601264
83	0xbeb6a20a	-0.356705
84	0xbdacd63f	-0.08439302
85	0x3ee9180c	0.4552616
86	0x3f835c79	1.0262595
87	0xbf1c40e6	-0.6103653
88	0x3f94cfe1	1.162594
89	0x3f888f87	1.0668801
90	0x3e920693	0.2852064
91	0x3ec026d0	0.37529612
92	0x3fa6c590	1.3029041
93	0xbe33ea37	-0.17569815
94	0x3f6f9019	0.9357925
95	0x3d383ebe	0.04498171
96	0xbe1602dd	-0.1464953
97	0xbcf32299	-0.029679583
98	0xbe19ed74	-0.15031987
99	0x3eefe6b7	0.4685571
100	0xbea7b7ca	-0.32757407
101	0x3f9846e9	1.189664
102	0xc0070774	-2.10983
103	0x3f3a663c	0.7281225
104	0xbf3332c0	-0.69999313
105	0x3f4b756d	0.7947605
106	0x3e3a5eb5	0.1820019
107	0xbec5c3bb	-0.38625893
108	0xbf6bb00a	-0.9206549
109	0x3f255c6d	0.64594156
110	0xbeb18401	-0.34671023
111	0xbe5f431a	-0.21802941
112	0x3edfe1c5	0.43726936
113	0xbf86c682	-1.052933
114	0xbf2898cf	-0.6585817
115	0x3f1f01cd	0.6211212
116	0xc00a1d93	-2.158055
117	0xbf54236e	-0.8286656
118	0x3c37e046	0.011222905
119	0xbecef297	-0.40419456
120	0x3fabc356	1.3418987
121	0x3f37e02e	0.71826446
122	0xbf6dde29	-0.92917114
123	0x3f7017c9	0.93786293
124	0xbedd78f9	-0.43256357
125	0xbd60834a	-0.054812707
126	0xbf73720e	-0.9509591
127	0x3ddc97dd	0.10771153
128	0x3f0e2618	0.55526876
129	0xbf3bf221	-0.73416334
130	0x3f00a180	0.5024643
131	0x401e5b75	2.474332
132	0x3db23e41	0.0870328
133	0x3f6ce8c3	0.92542666
134	0xbf3df147	-0.74196285
135	0x3f84bccc	1.0370116
136	0x3f468226	0.7754234
137	0xbea70e3f	-0.32628056
138	0x3f578d72	0.84200203
139	0x3ed4efc5	0.4158918
140	0x3f862ff9	1.048339
141	0xbf8b2ad0	-1.087244
142	0xbfa755d0	-1.3073063
143	0x3ecd85fb	0.4014128
144	0xbe04ca9d	-0.12967916
145	0x3f11b9e7	0.5692429
146	0xbfb25b01	-1.3934022
147	0xbf0eeb5b	-0.55827874
148	0xbf951ee5	-1.1650053
149	0x3fdf6bc4	1.7454762
150	0x3ec20d9f	0.37901017
151	0xbf5f612c	-0.8725765
152	0xbfcfc1f7	-1.6231068
153	0xbf8fbf49	-1.1230251
154	0x3f97b7bf	1.185295
155	0x3c8bae39	0.01705085
156	0x3ed8cc7e	0.42343515
157	0x3fa17821	1.2614785
158	0x3f84ea33	1.0383972
159	0x3eaec24a	0.34132606
160	0xbd4bb9d5	-0.04973777
161	0x3be26c7f	0.0069099064
162	0x3e4939ee	0.19651005
163	0xbe6fcbeb	-0.23417632
164	0xbf4f2ef4	-0.8093102
165	0x3fdfd940	1.7488174
166	0x3f03317c	0.5124738
167	0x3e3d75e9	0.1850201
168	0xbedd743b	-0.4325274
169	0xbe563540	-0.20918751
170	0xbef4647a	-0.47732908
171	0x3d916ffb	0.07101437
172	0xbfbfdcb1	-1.4989225
173	0xbeb87bfa	-0.36032087
174	0xbf65b392	-0.8972713
175	0xbf540e83	-0.82834643
176	0xbf6bb854	-0.9207814
177	0xbed1c200	-0.40968323
178	0x3ffbd66b	1.967481
179	0x3f3b1522	0.7307912
180	0xbdc6d5cc	-0.09708747
181	0x3e44d559	0.1922201
182	0xbf16c5cb	-0.5889556
183	0xbf5715d5	-0.8401769
184	0xbf668a43	-0.9005472
185	0xbf785b7e	-0.97014606
186	0x3fa6d1a3	1.3032726
187	0x3f7a28b4	0.9771836
188	0x3fcffd79	1.6249229
189	0x3efdb43a	0.49551564
190	0xbd1b7a89	-0.037958656
191	0xbf5edbba	-0.87054026
192	0x3e2fe8f3	0.17178707
193	0x3fc5a44d	1.5440766
194	0xbf29a30a	-0.662644
195	0xbda4ea79	-0.080525346
196	0xbf14a5aa	-0.58065283
197	0xbe991924	-0.29901993
198	0xbecc8c1a	-0.3995064
199	0xbf496671	-0.7867194
200	0xbf850c61	-1.0394403
201	0xbd487ded	-0.048948217
202	0x3eae5076	0.34045762
203	0xbeaa218c	-0.3322872
204	0xbee19225	-0.44056812
205	0x3fa43818	1.2829618
206	0x3f97d5ff	1.1862181
207	0x3ee9c80b	0.45660433
208	0x3ea84064	0.32861626
209	0xbf323a75	-0.6962045
210	0xbd20fdd2	-0.039304562
211	0x3f9a14bb	1.2037576
212	0x3e97fcf8	0.29685187
213	0x3fc10dc0	1.5082321
214	0xbe1890b5	-0.14898951
215	0xbf4b58fa	-0.7943264
216	0x3fdbd997	1.7175778
217	0xbeff34ad	-0.49844876
218	0x3f871851	1.0554296
219	0xbc179c2c	-0.009253543
220	0x3fe9feb3	1.8280853
221	0x3e8b18c9	0.27167347
222	0x3f2adec5	0.6674617
223	0x3ea493d2	0.32144028
224	0x3ea19594	0.31559432
225	0x3f9a548a	1.2057049
226	0xbe241455	-0.16023381
227	0xbeb259ec	-0.3483423
228	0x3ef37c2d	0.47555676
229	0x3f535aa6	0.82560194
230	0xbfbe68d3	-1.487574
231	0xbf8d82aa	-1.10555
232	0xbe756d69	-0.23967518
233	0xbf2a1e10	-0.6645212
234	0x3e71572c	0.2356841
235	0xbf30672e	-0.6890744
236	0xbf43970c	-0.76402354
237	0x3e5a361a	0.213097
238	0xbfbce77a	-1.4758141
239	0xbf349cc2	-0.70551693
240	0x3fe0715b	1.7534593
241	0x3c93acf6	0.01802681
242	0x3f263688	0.6492696
243	0x3eb5e85b	0.35528836
244	0x3ec5386a	0.38519603
245	0x3ebbc604	0.3667451
246	0xbec7f89e	-0.39056867
247	0xbf9a2a61	-1.2044183
248	0x3f694398	0.91118765
249	0x3ea962c3	0.33083162
250	0xbf4f8d93	-0.810754
251	0xbedd5c44	-0.43234456
252	0xbef5c057	-0.47998306
253	0x3f251620	0.64486885
254	0x3e169809	0.14706434
255	0xbf1b95ce	-0.6077546

lstm.bias_ih_l1 f4 [32]
0	0xbe97c028	-0.2963879
1	0xbf407e95	-0.7519315
2	0x3e0b0b61	0.1357856
3	0xbf8adf09	-1.0849315
4	0xbf5994dc	-0.84992766
5	0xbf2f712c	-0.6853206
6	0xbf2273e6	-0.63458097
7	0xbf2e455f	-0.680746
8	0xbea9ba1a	-0.33149797
9	0xbf873ec5	-1.0566031
10	0xbf882235	-1.0635439
11	0x3dfd3585	0.12363724
12	0xbe95b837	-0.29242107
13	0xbe59a68a	-0.21254936
14	0x3f4a9eeb	0.7914874
15	0xbe1185cc	-0.14211196
16	0x3de62a61	0.11238552
17	0x3cd3b8d8	0.025844976
18	0x3d4effa9	0.050536785
19	0xbeb3338e	-0.3500027
20	0x3d5c8370	0.053836286
21	0x3e9b5e6a	0.3034547
22	0x3e543231	0.20722272
23	0x3e60cf37	0.21954046
24	0xbde63db0	-0.11242235
25	0xbf4af52a	-0.7928034
26	0xbe21f681	-0.1581669
27	0xbf79aa3f	-0.975254
28	0xbe2a7b37	-0.16648565
29	0xbefebcf2	-0.4975353
30	0xbefdedb2	-0.4959541
31	0xbf006d36	-0.5016664

lstm.bias_hh_l1 f4 [32]
0	0xbf395f63	-0.72411174
1	0xbf7da36e	-0.990775
2	0x3d12047c	0.035648808
3	0xbf1a83cd	-0.6035736
4	0xbe5c21ea	-0.21497312
5	0xbefdbb05	-0.49556747
6	0xbf9548c6	-1.1662834
7	0xbf62fc6f	-0.88666433
8	0xbe692760	-0.22768927
9	0xbf907fcd	-1.1289002
10	0xbf747d51	-0.9550372
11	0xbeb5c1ae	-0.35499328
12	0xbf137749	-0.5760389
13	0xbd4d4969	-0.050118838
14	0x3f669f0b	0.9008643
15	0x3e814633	0.2524887
16	0x3e055c50	0.13023496
17	0xbe795244	-0.24347788
18	0xbde6342a	-0.11240418
19	0x3d82c4b9	0.06385178
20	0x3e567e81	0.20946695
21	0x3d5bdd5b	0.053677898
22	0xbec69922	-0.38788706
23	0xbea05ddd	-0.31321612
24	0xbefbec69	-0.49203804
25	0xbf91c71b	-1.1388887
26	0x3e8dec50	0.27719355
27	0xbfa6ab1e	-1.3020971
28	0xbec90ea3	-0.3926898
29	0xbe9b802f	-0.30371234
30	0xbe97d4d9	-0.29654577
31	0xbe496cb3	-0.19670372
